transformer_training/model/sp500_master_final.pth (torch, 792690 bytes, 30 tensors)

feature_gate.trans.weight f4 [2, 2]
000000 cc 23 0b 3e 91 b0 f4 be e3 be c8 3e 99 de 2a bd
       0.13587874 -0.4779096 0.39208135 -0.041716192

feature_gate.trans.bias f4 [2]
000000 92 23 a7 be c7 3e b9 3e
       -0.32644325 0.36180708

layers.0.weight f4 [128, 2]
000000 8b 58 24 be d6 e5 1b bf 4f a6 26 3f 0d 5b 96 be
       -0.16049401 -0.60897577 0.65097517 -0.2936634
000010 7a e1 ec b7 eb eb 6b 3d 53 41 38 3c 5c 67 dc 3d
       -2.8238388e-05 0.057598036 0.011246043 0.10761902
000020 08 6d 1a bf 85 f2 be bd cf c8 e9 bc dc 28 e3 3e
       -0.6032262 -0.09323601 -0.028538136 0.4436711
000030 68 9e 01 bf 98 fb 26 3f f6 43 d2 3e 41 bc 18 3e
       -0.50632334 0.6522765 0.41067475 0.14915563
000040 0e 37 30 3f 33 87 ff be 56 b7 a9 bd 00 a6 c4 3e
       0.68834007 -0.49907836 -0.08286922 0.38407898
000050 68 16 09 3f b6 1c 1a 3f cf e5 1a bf 79 0f a6 3e
       0.53549814 0.6020006 -0.6050691 0.3243368
000060 e3 6d fb be 42 17 9d be 73 11 97 be c2 df 14 bc
       -0.49107274 -0.30681807 -0.295055 -0.009086551
000070 5c e5 69 bd 64 18 1b 3f 97 d0 99 be 4c a0 ea be
       -0.0571035 0.6058409 -0.30041954 -0.45825422
000080 64 a6 df 3e 5c 7f 51 be 2c e9 bd bd 9c 71 d8 3e
       0.43681633 -0.2045874 -0.0927299 0.42274177
000090 c5 62 00 bf e6 5d 68 be b9 e4 a9 ba eb 39 12 bf
       -0.5015071 -0.2269207 -0.0012961841 -0.57119626
0000a0 c4 50 10 3f 51 8a 53 3e c0 7c 91 3e a2 b7 14 3f
       0.5637324 0.20658232 0.2841549 0.580927
0000b0 e9 59 18 3f 03 08 d0 3e 34 28 27 bf 43 8b 02 be
       0.5951219 0.40631112 -0.6529572 -0.12748437
0000c0 62 61 2c be 05 02 72 3c 42 eb 82 be 5d ee 93 bc
       -0.16834024 0.014770989 -0.25570112 -0.018057996
0000d0 0a 47 ba 3e 9f fc 91 be cb 0b 0f bf d8 62 30 be
       0.36382324 -0.28513047 -0.5587737 -0.17225206
0000e0 d2 20 a5 be 38 b0 11 3f a9 e3 22 3f 82 bf 24 3c
       -0.32251602 0.56909513 0.6362863 0.010055425
0000f0 40 05 fe be 62 e4 7c 3e c2 ed 06 bf ee 3c 4f bc
       -0.4961338 0.24696496 -0.5270654 -0.012648804
000100 9d f7 0d 3f a7 bb 9d be 49 bc 68 3e 14 2e 8c 3e
       0.5545595 -0.3080723 0.22728075 0.27378905
000110 9f 98 f7 be 2f 78 54 3e 5b c9 10 3f 7f 5d 2d bf
       -0.48358628 0.20748971 0.56557244 -0.6772079
000120 a8 c0 9b be 22 21 a5 be 7f 3b 33 bf 1c 1f fc be
       -0.30420423 -0.3225184 -0.7001266 -0.49242485
000130 a4 a9 82 3d 18 92 af 3e b6 00 0e bd 42 b2 f4 bd
       0.06380013 0.34291148 -0.034668647 -0.119480625
000140 04 a5 5c 3e 9e e6 10 3f 4a dc 30 be c9 56 b7 3d
       0.21547323 0.56601894 -0.17271534 0.089521
000150 9b 7b 64 3e 22 ec dd 3d 86 5b 83 3c da fd 33 3f
       0.22312777 0.108360544 0.016034853 0.7030922
000160 10 a1 db 3c 56 38 c6 3e dd 9c 53 bb 4d ba 2e bf
       0.026810199 0.38714856 -0.0032289543 -0.6825302
000170 60 c9 06 be 67 bf 3e 3e a4 8c 47 3e 77 27 14 bf
       -0.13162756 0.18627702 0.19487244 -0.5787272
000180 5a 40 0c bf 19 68 c4 3e 1d 5d 2c bf bb 45 3e be
       -0.5478569 0.3836067 -0.6732958 -0.18581288
000190 bc d1 29 3f d1 82 a3 3e 9d fc df be 49 bf d3 3e
       0.66335654 0.31935742 -0.43747416 0.41356876
0001a0 ca b8 d8 3e 7a 1a ea be 87 75 2b bf 7f 18 bd be
       0.42328483 -0.45723325 -0.6697621 -0.36932752
0001b0 a3 41 d3 3e 88 af 73 3e 18 46 d2 bc 92 00 65 3e
       0.41261014 0.23797429 -0.025668189 0.22363499
0001c0 86 cf 76 be 86 7e a9 3e 69 91 23 bf 4c 60 1a 3f
       -0.24102601 0.33104342 -0.63893753 0.6030319
0001d0 7a a8 1b bf 95 ae 34 3f 09 e6 5e 3e 33 86 fd 3c
       -0.6080395 0.7057889 0.21767439 0.03094778
0001e0 96 ae 2e bf 11 cc 90 be 5f d9 41 3d 23 3c bb be
       -0.68235147 -0.2828069 0.04732644 -0.36569318
0001f0 cf b1 25 be 07 80 d7 3e 35 75 88 3e ed bc a1 3d
       -0.1618111 0.42089865 0.26651922 0.07897363
000200 f0 82 aa 3d 07 fc ee be 87 fa d4 bc 30 46 e1 3e
       0.083257556 -0.46676657 -0.025998367 0.4399886
000210 f3 72 ce be 70 a9 50 3e cb 4b c6 be 72 9e 19 be
       -0.40322074 0.20377135 -0.387297 -0.15001848
000220 53 61 1c bf 25 c5 9c be 78 33 41 3e 74 3e 39 3e
       -0.61086005 -0.3061916 0.1886729 0.1809023
000230 7f c2 53 be d1 b4 77 be e1 6b df 3d 5e 07 f1 be
       -0.20679663 -0.2419007 0.10909248 -0.47075933
000240 30 8f 0b be 21 ea 84 be 39 9d 8f 3e 65 7a a9 3e
       -0.1362884 -0.25959876 0.2804964 0.33101192
000250 5f c1 26 3f f2 d9 bb be 51 9e 91 bd aa a1 a5 bd
       0.6513881 -0.36689717 -0.071102746 -0.080874756
000260 4c 99 44 be f4 3b 02 be 5b 60 bb 3e 68 68 0e 3f
       -0.19199103 -0.12718183 0.3659695 0.5562806
000270 22 3f 80 3e 74 92 c3 be 80 a9 a1 be b6 52 fc be
       0.25048167 -0.38197672 -0.3157463 -0.49281853
000280 49 33 5b be 84 0f 04 bf 6c 4d 0a bf 0b 7f fe 3e
       -0.21406282 -0.51586175 -0.54024386 0.497063
000290 08 2f 13 bf c8 67 1c 3f 33 56 0b bf 48 ae 83 3e
       -0.5749364 0.6109586 -0.54428405 0.25718904
0002a0 e1 3e 37 bc 3f 8a 1c 3f 72 47 dc 3e ac 2f 1d bf
       -0.011184425 0.61148447 0.43023258 -0.61400867
0002b0 34 fc 0d 3e 80 a5 0f 3f e5 5c 89 3e 72 32 e4 be
       0.13865739 0.5611191 0.26828685 -0.44569737
0002c0 aa f8 14 bf 6d bc 19 3f 5a 0f f9 3e 8d db 3e 3e
       -0.5819193 0.6005314 0.48644525 0.1863844
0002d0 12 99 82 3c 36 07 be 3e 9b 98 93 3c c6 0a 2d 3f
       0.01594213 0.37114877 0.018017104 0.67594564
0002e0 27 21 8c 3e 32 c6 05 3c 3f 8d 8f 3e 45 08 15 3f
       0.27369043 0.008164929 0.2803745 0.58215743
0002f0 88 66 17 be 5f 7f 11 3f a5 07 24 bf 32 20 18 bf
       -0.14785206 0.5683498 -0.64074165 -0.59424126
000300 09 2b 04 3e 87 bf bf 3e 2a ca 2b 3f e9 12 14 3e
       0.12907042 0.3745081 0.6710535 0.14460339
000310 46 e2 f8 be 33 21 52 3e 1a 2e cf 3e af 1f b0 3e
       -0.48610133 0.20520477 0.4046486 0.34399173
000320 4f 15 d1 be 5c 06 cc be 06 03 2d bf be a9 ea be
       -0.4083657 -0.39848602 -0.6758274 -0.45832628
000330 74 8b ff 3e 2b 5e c3 3e 4a 4d 1b 3f d4 01 f7 ba
       0.49911082 0.38157782 0.6066481 -0.0018845149
000340 cc 63 2a bf 58 d8 13 be cd 5d 57 be 84 f6 4e 3e
       -0.6655853 -0.14437997 -0.21031876 0.20211226
000350 60 14 10 bf 95 a1 be be bc ac a8 be 3a c7 0b 3f
       -0.5628109 -0.37232652 -0.32944286 0.5460087
000360 6b 03 6d be 74 5f aa 3e 5f 5c b8 3e 28 d1 d9 3e
       -0.23145835 0.3327595 0.36007974 0.42542386
000370 b7 cd d4 3e f4 ea 9b be 52 eb 2e 3f e1 67 20 bf
       0.41563198 -0.30452693 0.6832782 -0.62658507
000380 94 a5 11 3f 53 df bc bd 4d 62 ae bd 06 4f 33 3f
       0.5689328 -0.09222283 -0.08514843 0.70042455
000390 9e b7 e1 3e 16 5e 90 3e 91 f5 2b 3f 73 59 61 be
       0.440854 0.28196782 0.6717158 -0.22006778
0003a0 ec 86 07 bf 2d 9e c3 3e 95 e6 21 3f f3 a7 19 bf
       -0.5294025 0.38206616 0.63242465 -0.60021895
0003b0 0f 35 31 bf 67 ff 26 3f 21 0a 2f 3e a9 92 b9 be
       -0.69221586 0.65233463 0.17093708 -0.36244705
0003c0 50 dc a3 be e2 65 2f 3f ad 6b 03 bf 47 da be 3b
       -0.32004023 0.68514836 -0.51336175 0.0058243605
0003d0 ad 02 eb bd 6b 2a 0e bf 9e 04 42 3e 64 6e 22 bf
       -0.1147512 -0.55533475 0.18947074 -0.6344969
0003e0 c0 5c 0b 3f 42 9a cf 3e 56 49 21 3e 0d 55 47 3e
       0.544384 0.40547377 0.15750632 0.19466038
0003f0 09 ff 8f 3e 48 bb d9 3e 12 7d 1f bf f2 44 f8 3e
       0.28124264 0.42525697 -0.6230022 0.484901

layers.0.bias f4 [128]
000000 78 e2 04 3f b6 14 ce 3e 46 53 6f 3e 9b e8 4d be
       0.51908064 0.40250176 0.2337161 -0.20108263
000010 25 46 25 bf e1 7a 1c 3f 5b 53 95 be fa f4 e4 be
       -0.6456016 0.61125 -0.29165158 -0.44718152
000020 fb 9b f9 3e 43 13 ea 3e 46 be fc 3c 2d ef bb 3d
       0.48751816 0.4571782 0.030852448 0.091764785
000030 1c 45 85 be bc 98 3e 3e 75 e1 f5 3e 34 14 ce be
       -0.2602929 0.18612951 0.48023573 -0.4024979
000040 9f 9e 6a 3e da e3 4f 3e c8 9c 89 be f5 b4 53 3e
       0.22912072 0.20301762 -0.26877427 0.20674498
000050 90 97 24 bf 63 7d c9 be 4e c7 f8 be 3c b9 e7 be
       -0.64293766 -0.39353475 -0.48589557 -0.4525851
000060 19 ab 9a 3e 06 3b ef bd e2 68 32 3f dd df 25 3f
       0.30208662 -0.1168118 0.6969129 0.64794713
000070 89 cf f5 be c6 cb 05 3f 88 1e fa bd 2e b0 ee be
       -0.480099 0.5226406 -0.122128546 -0.4661879
000080 f0 61 e0 be 5e 8d c9 3d 07 4d 3c 3d 41 a2 64 be
       -0.4382472 0.09841417 0.045971896 -0.2232752
000090 87 49 f9 be 66 a1 a9 be 1c a5 42 3d a7 7d 92 3e
       -0.4868891 -0.3313095 0.04752074 0.2861149
0000a0 78 3a 0a bf d6 fb d9 3e 6a 97 c8 be 05 ec 15 3f
       -0.53995466 0.42574948 -0.3917802 0.5856326
0000b0 f2 34 25 3f ea 6d 19 3f 55 55 17 3f 74 15 7f 3e
       0.64533913 0.5993334 0.5911458 0.24910527
0000c0 b5 d2 76 3e 77 f4 d4 bc 42 98 e7 be ad 5b 2e bf
       0.24103816 -0.025995476 -0.4523335 -0.68108636
0000d0 f2 cc ea 3d 1d c9 a8 be 0e 87 c4 be 01 23 f3 be
       0.114648715 -0.32965937 -0.3838429 -0.47487643
0000e0 9e 98 11 bf 3a 5c 69 bd 21 7c 93 bd 91 87 01 3f
       -0.568735 -0.05697272 -0.0720141 0.5059748
0000f0 e8 df a3 bc c3 4a fd be 95 88 ec be fd 37 d4 be
       -0.020004228 -0.494711 -0.46197954 -0.41448966
000100 ba 5e 9f be 12 e7 a4 be f7 26 12 bf 93 54 42 bd
       -0.31126958 -0.32207543 -0.57090706 -0.047443938
000110 40 7b 93 be 2a b4 9b be eb a8 dd be 6a 96 ef bd
       -0.2880497 -0.30410892 -0.43292937 -0.11698611
000120 e5 a6 06 3f d0 52 35 bf 53 c3 21 bf d5 11 ca bc
       0.5259841 -0.70829487 -0.63188666 -0.024666706
000130 0e 0a 2d bf 63 71 9f be 8d 4e 19 be c2 ab 22 bf
       -0.6759347 -0.31141195 -0.14971371 -0.6354333
000140 38 5d 22 bf 66 3e 13 bf 1f 83 ee 3e e5 cf d7 be
       -0.6342349 -0.5751709 0.46584412 -0.42150798
000150 6a 16 78 be 3b b5 95 be 65 cd d8 3c f0 f0 28 bf
       -0.242273 -0.2923983 0.026465127 -0.6599264
000160 8c a3 1c bf 51 64 c8 3e 26 15 11 3f 73 48 02 3f
       -0.6118705 0.39139035 0.56672895 0.508918
000170 a1 e5 cf 3e ce 57 ba 3d fe 61 b2 bd f5 bb 74 3c
       0.4060488 0.09098779 -0.08710097 0.014937391
000180 8b 46 3f be 0f 3f 06 bf 48 3b 89 3e 70 72 56 3e
       -0.18679254 -0.5243997 0.2680304 0.20942092
000190 bb f1 5c 3d d3 5a 84 be 49 c0 af be ff 1d be 3e
       0.05394147 -0.25850543 -0.3432639 0.3713226
0001a0 2a 67 8e bd 5a f0 ec be d5 e1 2b 3f 10 0d 42 be
       -0.06953271 -0.46277124 0.6714147 -0.18950295
0001b0 c2 85 b2 be 9b 91 2c bf 65 77 50 be 6e b7 02 3f
       -0.34867674 -0.67409676 -0.20358045 0.5106114
0001c0 3b 54 6d 3c d1 a9 22 bf 57 ca 00 bf 57 d3 cf be
       0.014485414 -0.6354037 -0.50308746 -0.40590927
0001d0 53 58 00 3f 88 83 01 3f 88 2c 0b bf 72 d4 22 be
       0.5013477 0.50591326 -0.54364824 -0.15901354
0001e0 c5 7e de 3e 63 8f d4 bd f8 95 20 bf 05 47 04 3f
       0.43456092 -0.10378911 -0.62728834 0.5167087
0001f0 65 f7 6a 3e 89 af 13 3f 3e 7a f7 3e d7 6d c9 be
       0.22945936 0.5768972 0.4833545 -0.39341614

layers.1.pe f4 [100, 128]
000000 00 00 00 00 00 00 80 3f 00 00 00 00 00 00 80 3f
       0.0 1.0 0.0 1.0
000010 00 00 00 00 00 00 80 3f 00 00 00 00 00 00 80 3f
       0.0 1.0 0.0 1.0
000020 00 00 00 00 00 00 80 3f 00 00 00 00 00 00 80 3f
       0.0 1.0 0.0 1.0
000030 00 00 00 00 00 00 80 3f 00 00 00 00 00 00 80 3f
       0.0 1.0 0.0 1.0
000040 00 00 00 00 00 00 80 3f 00 00 00 00 00 00 80 3f
       0.0 1.0 0.0 1.0
000050 00 00 00 00 00 00 80 3f 00 00 00 00 00 00 80 3f
       0.0 1.0 0.0 1.0
000060 00 00 00 00 00 00 80 3f 00 00 00 00 00 00 80 3f
       0.0 1.0 0.0 1.0
000070 00 00 00 00 00 00 80 3f 00 00 00 00 00 00 80 3f
       0.0 1.0 0.0 1.0
000080 00 00 00 00 00 00 80 3f 00 00 00 00 00 00 80 3f
       0.0 1.0 0.0 1.0
000090 00 00 00 00 00 00 80 3f 00 00 00 00 00 00 80 3f
       0.0 1.0 0.0 1.0
0000a0 00 00 00 00 00 00 80 3f 00 00 00 00 00 00 80 3f
       0.0 1.0 0.0 1.0
0000b0 00 00 00 00 00 00 80 3f 00 00 00 00 00 00 80 3f
       0.0 1.0 0.0 1.0
0000c0 00 00 00 00 00 00 80 3f 00 00 00 00 00 00 80 3f
       0.0 1.0 0.0 1.0
0000d0 00 00 00 00 00 00 80 3f 00 00 00 00 00 00 80 3f
       0.0 1.0 0.0 1.0
0000e0 00 00 00 00 00 00 80 3f 00 00 00 00 00 00 80 3f
       0.0 1.0 0.0 1.0
0000f0 00 00 00 00 00 00 80 3f 00 00 00 00 00 00 80 3f
       0.0 1.0 0.0 1.0
000100 00 00 00 00 00 00 80 3f 00 00 00 00 00 00 80 3f
       0.0 1.0 0.0 1.0
000110 00 00 00 00 00 00 80 3f 00 00 00 00 00 00 80 3f
       0.0 1.0 0.0 1.0
000120 00 00 00 00 00 00 80 3f 00 00 00 00 00 00 80 3f
       0.0 1.0 0.0 1.0
000130 00 00 00 00 00 00 80 3f 00 00 00 00 00 00 80 3f
       0.0 1.0 0.0 1.0
000140 00 00 00 00 00 00 80 3f 00 00 00 00 00 00 80 3f
       0.0 1.0 0.0 1.0
000150 00 00 00 00 00 00 80 3f 00 00 00 00 00 00 80 3f
       0.0 1.0 0.0 1.0
000160 00 00 00 00 00 00 80 3f 00 00 00 00 00 00 80 3f
       0.0 1.0 0.0 1.0
000170 00 00 00 00 00 00 80 3f 00 00 00 00 00 00 80 3f
       0.0 1.0 0.0 1.0
000180 00 00 00 00 00 00 80 3f 00 00 00 00 00 00 80 3f
       0.0 1.0 0.0 1.0
000190 00 00 00 00 00 00 80 3f 00 00 00 00 00 00 80 3f
       0.0 1.0 0.0 1.0
0001a0 00 00 00 00 00 00 80 3f 00 00 00 00 00 00 80 3f
       0.0 1.0 0.0 1.0
0001b0 00 00 00 00 00 00 80 3f 00 00 00 00 00 00 80 3f
       0.0 1.0 0.0 1.0
0001c0 00 00 00 00 00 00 80 3f 00 00 00 00 00 00 80 3f
       0.0 1.0 0.0 1.0
0001d0 00 00 00 00 00 00 80 3f 00 00 00 00 00 00 80 3f
       0.0 1.0 0.0 1.0
0001e0 00 00 00 00 00 00 80 3f 00 00 00 00 00 00 80 3f
       0.0 1.0 0.0 1.0
0001f0 00 00 00 00 00 00 80 3f 00 00 00 00 00 00 80 3f
       0.0 1.0 0.0 1.0
000200 a4 6a 57 3f 41 51 0a 3f 1b 00 43 3f 29 dd 25 3f
       0.84147096 0.54030234 0.76172036 0.6479059
000210 ce 7a 2e 3f b0 54 3b 3f 3a cd 1a 3f aa e4 4b 3f
       0.68156135 0.731761 0.604694 0.7964579
000220 ba 7d 08 3f 0d 94 58 3f e3 96 ef 3e d5 3d 62 3f
       0.53316844 0.8460091 0.46794805 0.883756
000230 f0 90 d1 3e c7 92 69 3f 61 d7 b6 3e a9 1e 6f 3f
       0.4093089 0.9123959 0.35711196 0.9340616
000240 3e 39 9f 3e 6b 4e 73 3f 17 76 8a 3e 11 76 76 3f
       0.3109836 0.9504153 0.2704322 0.96273905
000250 25 8f 70 3e f1 d5 78 3f 61 ce 50 3e 09 9f 7a 3f
       0.23492105 0.9720145 0.20391227 0.9789892
000260 3a 23 35 3e 83 f6 7b 3f e3 10 1d 3e 7c f8 7c 3f
       0.17689219 0.9842302 0.15338473 0.9881666
000270 f3 25 08 3e 28 ba 7d 3f 5c f9 eb 3d 84 4b 7e 3f
       0.13295726 0.99112177 0.11522171 0.9933398
000280 76 75 cc 3d 98 b8 7e 3f bf 20 b1 3d 6e 0a 7f 3f
       0.099833414 0.9950042 0.08648824 0.9962529
000290 36 6f 99 3d d1 47 7f 3f 60 e6 84 3d de 75 7f 3f
       0.07491915 0.9971896 0.06489253 0.99789226
0002a0 ae 36 66 3d 68 98 7f 3f 12 62 47 3d 4f b2 7f 3f
       0.05620449 0.9984193 0.04867751 0.9988145
0002b0 fb ac 2c 3d bd c5 7f 3f c5 8a 15 3d 4f d4 7f 3f
       0.042157155 0.999111 0.036509294 0.9993333
0002c0 5b 81 01 3d 3c df 7f 3f a4 4d e0 3c 6e e7 7f 3f
       0.031617504 0.99950004 0.027380772 0.9996251
0002d0 a5 3e c2 3c 93 ed 7f 3f 82 36 a8 3c 2f f2 7f 3f
       0.023711512 0.99971884 0.020533804 0.9997892
0002e0 42 ab 91 3c a3 f5 7f 3f a3 4a 7c 3c 3b f8 7f 3f
       0.017781857 0.99984187 0.015398654 0.99988145
0002f0 49 7a 5a 3c 2c fa 7f 3f fa 31 3d 3c a1 fb 7f 3f
       0.013334819 0.99991107 0.01154756 0.9999333
000300 57 d6 23 3c b9 fc 7f 3f ba e0 0d 3c 8b fd 7f 3f
       0.009999833 0.99995 0.008659536 0.9999625
000310 16 b9 f5 3b 28 fe 7f 3f b3 c9 d4 3b 9e fe 7f 3f
       0.0074988706 0.99997187 0.006493771 0.9999789
000320 5a 44 b8 3b f7 fe 7f 3f a3 91 9f 3b 39 ff 7f 3f
       0.0056233825 0.9999842 0.004869656 0.99998814
000330 5a 2e 8a 3b 6b ff 7f 3f ea 51 6f 3b 90 ff 7f 3f
       0.0042169513 0.9999911 0.003651733 0.9999933
000340 1c 3e 4f 3b ac ff 7f 3f fe 76 33 3b c1 ff 7f 3f
       0.0031622713 0.999995 0.0027384157 0.99999624
000350 03 69 1b 3b d1 ff 7f 3f 67 94 06 3b dd ff 7f 3f
       0.0023713715 0.9999972 0.0020535232 0.9999979
000360 20 15 e9 3a e6 ff 7f 3f 54 d7 c9 3a ec ff 7f 3f
       0.0017782785 0.99999845 0.0015399256 0.9999988
000370 8b c9 ae 3a f1 ff 7f 3f 09 5c 97 3a f5 ff 7f 3f
       0.0013335211 0.9999991 0.0011547814 0.99999934
000380 6d 12 83 3a f8 ff 7f 3f e1 01 63 3a fa ff 7f 3f
       0.0009999998 0.9999995 0.0008659643 0.99999964
000390 89 94 44 3a fb ff 7f 3f 43 3b 2a 3a fd ff 7f 3f
       0.000749894 0.9999997 0.0006493816 0.9999998
0003a0 13 6a 13 3a fd ff 7f 3f ab 4f ff 39 fe ff 7f 3f
       0.0005623411 0.9999998 0.00048696747 0.9999999
0003b0 21 17 dd 39 ff ff 7f 3f d6 74 bf 39 ff ff 7f 3f
       0.00042169637 0.99999994 0.00036517408 0.99999994
0003c0 61 cb a5 39 ff ff 7f 3f 75 92 8f 39 ff ff 7f 3f
       0.00031622782 0.99999994 0.00027384204 0.99999994
0003d0 0d a8 78 39 00 00 80 3f e2 53 57 39 00 00 80 3f
       0.00023713727 1.0 0.00020535247 1.0
0003e0 53 77 3a 39 00 00 80 3f 19 79 21 39 00 00 80 3f
       0.00017782794 1.0 0.00015399269 1.0
0003f0 6d d4 0b 39 00 00 80 3f dd 2c f2 38 00 00 80 3f
       0.00013335208 1.0 0.00011547816 1.0

layers.2.qtrans.weight f4 [128, 128]
000000 ca ed 5a bd 2f f1 a0 3d 58 0a 47 3c 6d 13 9f 3b
       -0.05344943 0.07858502 0.012148462 0.0048546107
000010 22 96 5f 3d 11 a6 25 3d f7 11 69 3d 24 cd 8e bd
       0.054586537 0.040441576 0.0569019 -0.06972721
000020 2d c7 01 bd ec 0c e3 3b 74 7f 9d 3d d4 1a 8c bc
       -0.03168409 0.0069290306 0.076903254 -0.017102636
000030 bb 84 a8 3d 6f 1d c1 3c eb 2d a3 3d f4 95 5d 3c
       0.08228441 0.023573605 0.079677425 0.013524521
000040 3e 92 bd 3c c0 40 b0 3d 15 e5 90 3b 5b 6f b4 3d
       0.023141023 0.086061 0.00442184 0.08810302
000050 d7 4a 4d bd 49 bd a4 3d 8f 1b 49 3d 4f 60 d2 3c
       -0.0501202 0.08043916 0.049098548 0.02568069
000060 7c 9e 98 3d 90 94 bf 3c 52 1b 88 bd 5c e2 c6 bc
       0.074521035 0.02338627 -0.06645836 -0.024277858
000070 d1 ba 0a 3c 21 2a 8e 3d 48 45 a8 bd 03 ba bb 3c
       0.008467392 0.06941629 -0.08216339 0.022915846
000080 81 12 20 3d bb da 56 3c ef ae e6 39 57 a5 2e 3c
       0.039080147 0.013113673 0.00043999354 0.010659537
000090 a3 a9 c3 bc 0c c2 99 bd 9e c8 a8 3d ff 70 a1 3d
       -0.0238846 -0.07507715 0.0824139 0.078828804
0000a0 70 b1 1f 3d d0 39 a7 bd 1f 67 6b 3d 23 bd 83 bc
       0.038987577 -0.08165324 0.05747139 -0.016081398
0000b0 cd c6 8d bd 6a 8e a0 3d fe ce 9a bc 64 4b a3 bd
       -0.06922684 0.07839663 -0.01889753 -0.07973364
0000c0 67 a0 67 bd c9 77 21 3d af a7 9b b9 84 a7 e0 bc
       -0.056549456 0.039420877 -0.00029688838 -0.027423628
0000d0 42 e7 30 bd 13 05 72 3c a8 12 68 3d e5 61 99 bd
       -0.043189295 0.014771718 0.056658417 -0.07489375
0000e0 69 59 80 bd 8f 96 8a bd 69 97 86 bd db b4 9c 3d
       -0.06267054 -0.06766998 -0.06571848 0.07651683
0000f0 9b d6 3e bd 05 cd 12 3d 63 1f 79 bd 40 64 4d 3d
       -0.046591382 0.035840053 -0.06082095 0.050144434
000100 e4 b9 30 3d c4 96 c5 bc c7 56 45 bd d6 dd 17 bd
       0.04314603 -0.024119742 -0.04817846 -0.037076794
000110 c6 3d 5c ba b1 d9 18 3d ac 3d 47 bd 72 9a 89 bd
       -0.0008401539 0.03731698 -0.0486428 -0.06718911
000120 09 1c 02 bc 42 ee 75 bc 57 a6 9f 3d 92 b9 18 bd
       -0.007941254 -0.015010418 0.07795399 -0.03728635
000130 82 23 f7 3c e7 85 6b 3d 12 b7 aa bd a3 64 f5 3c
       0.030168299 0.057500746 -0.08335699 0.029955214
000140 84 97 59 bd cf 83 78 bd 36 7a 96 3c c2 b9 b8 3c
       -0.053123012 -0.060672577 0.018368822 0.022549514
000150 20 7e 2a bd ed 88 af 3c 26 3e a0 bc d2 af 5d bc
       -0.04162419 0.021427596 -0.019560885 -0.013530688
000160 d5 d7 64 3d dd 52 50 3d 60 76 4e 3d c7 c4 e9 bc
       0.055869896 0.050860275 0.05040586 -0.028536214
000170 4b f0 0e bd 92 b8 5a 3d 63 2c 16 3d 4e 89 5d 3d
       -0.03489713 0.053398676 0.036663424 0.054086022
000180 b0 94 7e bd 9e b7 4e bd 55 bb b5 3b 75 e5 35 3c
       -0.06215352 -0.05046808 0.0055460134 0.01110207
000190 fd fb 17 bc 09 7b d9 3c f7 e2 b2 ba f7 ea a8 3c
       -0.009276387 0.026547926 -0.0013647963 0.020619852
0001a0 20 71 97 bd 1e 3b 90 bd a1 7b 64 3d 0f 70 8d bc
       -0.07394624 -0.07042526 0.055781964 -0.017265348
0001b0 11 1d 4d bc 2c a3 ca ba 13 60 0c bd 78 82 9f bc
       -0.012519137 -0.0015460006 -0.03427131 -0.019471392
0001c0 1c 2e 82 3c 40 1e 47 3d d1 59 94 bd ff 65 3f bd
       0.015891127 0.048612833 -0.072436936 -0.04672813
0001d0 8a 63 3b 3d 64 92 81 bb b1 ba 64 3d 87 b5 a4 bd
       0.045749225 -0.0039542187 0.055842105 -0.08042436
0001e0 07 b7 02 3c 13 78 69 bd 89 bb 8c 3c c9 1c 9a bb
       0.007978207 -0.056999277 0.017179267 -0.0047031385
0001f0 ed 3e 75 3c 04 2b 92 bd 10 66 f2 3c ce 96 a2 bc
       0.014968616 -0.07137111 0.029589683 -0.0198473
000200 04 1f d0 ba d1 08 8c 3d 42 c8 af 3d d3 28 07 bd
       -0.0015878384 0.06837619 0.08583118 -0.032997917
000210 18 42 b1 3c 14 af 06 b8 9b 1d 7e 3d fb 60 a7 bd
       0.021637961 -3.2111144e-05 0.062039953 -0.081727944
000220 55 e5 01 3d 65 3d ac 3d 99 8c 9a 3d b4 23 e4 3c
       0.03171285 0.084101476 0.07546348 0.027849056
000230 b7 cd 90 3d 98 fb 2c bd c1 b2 54 3d c2 60 2b 3d
       0.07070487 -0.042232126 0.051928286 0.041840322
000240 fa f5 28 bc b1 6a 0e bc 7e 74 65 3d 02 f9 98 bd
       -0.010312552 -0.008692429 0.0560193 -0.074693695
000250 d4 10 77 bd af 2b 99 bd 92 92 a5 bc 01 14 62 bd
       -0.060318783 -0.07479035 -0.020211492 -0.05519486
000260 d9 07 7f 3d 51 c6 19 bd 1d 78 6c bd 31 47 6c bd
       0.062263343 -0.037542645 -0.057731736 -0.05768508
000270 7e 8a 91 3d f6 d1 9b 3b 66 55 12 3d c1 15 84 3d
       0.071064934 0.004755254 0.035725974 0.06449462
000280 1f fd 98 3d 41 df 17 bd f7 c9 40 3d f3 53 0f bd
       0.07470154 -0.037078146 0.04706761 -0.03499217
000290 64 c8 a1 3d 0f d0 e7 3c f1 1a b5 bd d4 6a 8f 3d
       0.078995496 0.028297452 -0.08843029 0.07002798
0002a0 49 0f 3c 3d 2d 99 78 3d 78 fe c3 bc 41 f4 3b bd
       0.045913015 0.060692955 -0.023925051 -0.045887236
0002b0 5f 9e b2 3d c0 09 95 3c 8e a7 a9 3d 64 50 78 3d
       0.08721613 0.018193126 0.08283912 0.06062354
0002c0 16 3a 02 bd c9 b2 79 3d 90 3c 30 3d 0c ff a8 3d
       -0.031793676 0.06096152 0.043026507 0.08251771
0002d0 6c 76 f3 bc 7d 5c 4a 3c ac 5a 3f 3d 8a df a6 bd
       -0.029719554 0.0123511525 0.04671733 -0.081481054
0002e0 4b 86 b2 3d f7 a9 ac bd c3 5c 91 bc 84 ac 4f 3d
       0.087170206 -0.08430856 -0.017744428 0.050701633
0002f0 49 88 26 3d 55 43 b1 bc a9 75 a9 bd cd f1 4e bd
       0.040657315 -0.021638552 -0.08274395 -0.050523568
000300 47 23 ce 3c 12 92 bf bc 35 82 76 3d 92 9f b2 3d
       0.025163306 -0.023385081 0.06018277 0.08721842
000310 0d 80 67 3d d2 ed 78 3d c5 09 86 3d 8f 0e 6d bc
       0.056518603 0.060773678 0.06544832 -0.014468803
000320 4f 3a bd 3c 88 f5 80 3d e2 8b 00 bd 99 4b a3 bd
       0.023099093 0.06296831 -0.031383403 -0.079734035
000330 0f b4 08 3d ac a8 54 3d c5 1a 18 3d 93 58 06 bd
       0.033374842 0.05191867 0.037134904 -0.032799315
000340 eb 0c 4e 3d df e8 7b bd f7 ba b7 bc 6f ee fa bc
       0.05030529 -0.06150138 -0.022428019 -0.030631272
000350 23 57 9b 3d 73 fe 7c 3d 76 df c7 bb c7 9a 9b bd
       0.075849794 0.0617661 -0.0060996367 -0.07597881
000360 f9 2a 91 3d 6f 7f 1f 3d ee 11 41 bc f3 a3 a5 bd
       0.070882745 0.03893989 -0.01178406 -0.080879115
000370 9a 42 ae 3d d4 8e 5c bc 89 d7 2b bd 94 78 eb 3c
       0.08508797 -0.013461787 -0.041953597 0.02874402
000380 dd 73 94 bd f7 4f c9 bc 78 2c 8e bd 3f 72 83 3d
       -0.07248662 -0.024574263 -0.069420755 0.06418275
000390 7c f6 8d 3d 45 f5 67 bc b0 ef b4 39 b5 98 b3 bd
       0.06931779 -0.014157598 0.00034510856 -0.08769361
0003a0 10 40 7d bd 8f f4 d5 bb 83 af 9a bd 11 d9 7d 3c
       -0.061828673 -0.006529398 -0.075530075 0.015493647
0003b0 04 12 06 bd 8d 93 93 bd ae 6b 5a 3c 80 19 b2 bd
       -0.032732025 -0.072058775 0.013331337 -0.0869627
0003c0 3a 3f 50 bd fb 7e 96 bc 98 8a e8 bc 70 d1 99 3d
       -0.050841548 -0.018371096 -0.0283864 0.0751065
0003d0 17 e7 6b 3d 62 fa 09 3b 83 8b 5e 3c ba 47 9f 3c
       0.05759343 0.002105378 0.013583067 0.019443382
0003e0 fa 41 1e 3c eb 92 00 3c 14 ac 3b bc 00 d6 60 bd
       0.009659285 0.007847528 -0.011454601 -0.054891586
0003f0 1b 4f 6e bd 89 20 da bc b7 65 41 bd a7 af 2c 3b
       -0.05818091 -0.026626842 -0.047216143 0.0026349814

layers.2.ktrans.weight f4 [128, 128]
000000 f3 a4 65 3d 7d 3c 7b bd 29 10 a4 3c e6 9c 32 3d
       0.05606551 -0.061336983 0.020027237 0.04360666
000010 d3 41 09 3d ca 92 ae bd 2e 22 b9 bb db 00 a0 bd
       0.03351004 -0.085240915 -0.0056498265 -0.07812663
000020 bb 1e 8c 3d ca af ff bc 72 80 1f 3d 53 6e 6c bc
       0.06841799 -0.031211752 0.038940854 -0.0144306
000030 e3 c9 97 3d a4 f9 ef 3c 9e 57 ab 3d ea bc b5 3c
       0.07411554 0.029293843 0.08366321 0.022184808
000040 3f 9e 96 bd f1 95 1a 3d 25 5b 9d bd 99 ba 99 3d
       -0.07354402 0.03774065 -0.076834 0.07506294
000050 0e 9c 9a bd 4a 82 84 3c 89 f2 9f 3d 6b 5e 2c bd
       -0.07549296 0.016175408 0.07809932 -0.04208223
000060 c7 74 1d 3d da 06 89 3d 4a 09 90 bd 6d 55 9e 3d
       0.038441446 0.0669076 -0.07033022 0.077311374
000070 92 8f 0f 3c f2 02 56 3d a8 01 54 3d 9e 2e a0 bc
       0.008762257 0.052248903 0.051759392 -0.019553479
000080 06 ab fd 3c c8 e4 7c 3d 28 aa 91 3d b4 8c 4d 3d
       0.03096534 0.06174162 0.07112533 0.050183013
000090 16 51 ec 3a 5e 52 d6 bb 12 16 8b 3d 8d f8 8c 3d
       0.0018029537 -0.0065405807 0.06791319 0.06883345
0000a0 79 00 9d 3c 45 05 49 bd 87 a1 a9 3d c0 2e 87 3d
       0.019165264 -0.04907729 0.08282762 0.06600714
0000b0 70 17 6e 3c 25 35 5d bd 9c 65 bb 3c 7d 14 83 3c
       0.014531955 -0.05400576 0.0228756 0.01600098
0000c0 52 7d ad 3d 8f b5 72 3d c4 60 39 3d 0a e0 f6 bc
       0.084711686 0.05925518 0.0452583 -0.030136127
0000d0 74 16 78 3d ce 0d 22 bd 87 e9 75 bd 05 82 49 3c
       0.060568288 -0.039563946 -0.060037162 0.0122990655
0000e0 c1 12 7f bd b1 c5 b1 3d bf bd 63 bd a5 fc 36 3d
       -0.062273744 0.08680285 -0.055600878 0.044674534
0000f0 cf 10 c2 3b bb bf 63 3d 5c 0f 8c bd 16 53 b0 bd
       0.005922414 0.05560277 -0.06838867 -0.086095974
000100 5a b6 17 bd 41 90 5b bd ea 86 16 bc 65 06 36 3d
       -0.03703914 -0.053604368 -0.009187439 0.044439692
000110 6b 97 3f bc 8e 8e 43 bb a4 25 e1 3c 37 43 08 3c
       -0.011693816 -0.0029839608 0.027483769 0.0083168065
000120 43 c2 8a bc c2 61 a0 3d d5 5f 57 3c 10 ce 98 3d
       -0.016938334 0.07831146 0.013145407 0.07461178
000130 08 e1 6a bd 4c 29 3f 3d 2b a4 99 bd e8 87 a4 bd
       -0.057343513 0.046670243 -0.07502016 -0.080337346
000140 17 ef 9f bd d9 5e ca 3c 47 d7 52 3c ed 52 96 bd
       -0.07809275 0.02470343 0.012868709 -0.073400356
000150 ac 34 05 3d 1a 6d 9b 3c b5 ac 3f bc 52 d8 7a 3c
       0.032520935 0.018972922 -0.011698891 0.015310364
000160 72 90 1f 3d 50 13 a1 bd 21 7b 1c 3d d5 8e af 3d
       0.038956113 -0.07865012 0.038203362 0.08572165
000170 8d f5 bb bc 69 92 08 bd 08 3b 8d bb 38 f8 a1 bd
       -0.022944236 -0.033342753 -0.0043100156 -0.07908672
000180 2c ed 7f bb 9d ba 25 3c e5 87 2a 3c c0 aa 48 3c
       -0.0039051278 0.010115293 0.010408376 0.012247741
000190 24 93 38 3d 16 38 82 3d 39 ee 63 3d 7f 50 86 3d
       0.0450622 0.06358354 0.05564711 0.06558322
0001a0 0b 57 aa 3d e0 5d b5 bd 99 a2 60 bc f7 ed 88 3d
       0.083173834 -0.08855796 -0.013710641 0.06686013
0001b0 f7 6b 01 bd f3 6f a9 bd 74 f7 b1 3a b9 8b 1e bd
       -0.031597104 -0.08273306 0.0013577775 -0.03870747
0001c0 41 71 3f b9 0d f1 91 3d 28 54 ad bd 8e 85 bd bc
       -0.0001825737 0.07126055 -0.08463317 -0.023134973
0001d0 da 48 42 3c 28 37 e3 bb 1b 0d ee 3c c8 cb 89 bd
       0.0118581895 -0.0069340654 0.029058984 -0.06728321
0001e0 68 45 b3 3c c0 fc 8a 3c 7d 32 8f bc 34 31 9b 3d
       0.021883681 0.016966224 -0.01748013 0.07577744
0001f0 78 05 dc 3c 42 4a 7d 3c db 4b f3 3c da 59 60 bd
       0.026858076 0.015459599 0.029699257 -0.05477319
000200 bc a5 2d 3d 2f 5f 61 bd 64 f4 9b 3c 0c 53 56 bd
       0.042394385 -0.055022415 0.019037433 -0.052325293
000210 87 9d 98 3b 29 d3 91 3d 5b 02 0c bd f0 d8 a8 bd
       0.0046574506 0.07120354 -0.034181934 -0.082445025
000220 a4 6a 6c 3d 99 84 db 3c e5 67 7b bb a2 8b 66 bd
       0.057718888 0.026796626 -0.0038361487 -0.056285508
000230 76 c0 30 3d 44 f8 2b bd 5c a6 a5 3d 00 a2 9d ba
       0.043152295 -0.04198481 0.08088371 -0.0012026429
000240 5f 65 99 bb 73 5a e2 3c 5e bf 5d 3d e8 2c a3 bd
       -0.004681274 0.02763102 0.05413758 -0.079675496
000250 a0 8b 73 3d 86 e3 03 3d 6b b6 57 bc 94 17 b0 3c
       0.05945933 0.032199405 -0.01316605 0.021495618
000260 9f 23 55 bd 91 2e 9b 3c 71 d2 54 3d e0 98 3c bd
       -0.052035924 0.018943103 0.051958505 -0.04604423
000270 8b 70 65 3d 27 ba 5a bc aa e4 fa bb 08 34 8e 3c
       0.056015532 -0.013350046 -0.0076566534 0.017358795
000280 aa 7e 71 3d bd e4 0f bd b0 26 f8 3c 32 7f 44 3c
       0.058958687 -0.03513025 0.030291885 0.011993216
000290 e7 30 78 bd 5a ce 80 3d 9d 62 66 bd 5c 1c fe bc
       -0.060593512 0.062893584 -0.05624639 -0.031019382
0002a0 7b 4c 8a 3d c6 61 af 3d ab f4 4e bc 47 08 3b bd
       0.06752869 0.08563571 -0.012631576 -0.04566219
0002b0 8e e2 99 3d b6 38 84 bd d6 87 da bc 6c e3 08 3c
       0.07513915 -0.06456129 -0.0266761 0.008355003
0002c0 c4 43 ac bd 3b 91 aa 3d 4f d1 71 3d 93 ed 69 bd
       -0.08411363 0.08328482 0.059037503 -0.057111334
0002d0 0f 87 79 bc cf b2 b0 3c 2e 3f 61 3d 15 1e 42 bd
       -0.015229954 0.021569638 0.054991893 -0.04739197
0002e0 0c ee 99 bc e9 31 8c 3d c6 a8 0e 3d 0a 91 88 b8
       -0.018790267 0.06845457 0.034828924 -6.512001e-05
0002f0 c6 29 77 bc 99 93 02 3c 16 5a 9d bd c7 50 f3 bc
       -0.015085643 0.00796976 -0.07683198 -0.029701604
000300 f1 6c 12 bd bc ef c7 3b 2d 00 b1 bd 84 c4 97 3d
       -0.035748426 0.0061015766 -0.08642612 0.07410529
000310 1b 02 9e 3c af a0 0e 3d 29 c7 a2 3d 0d 2d 77 3d
       0.019288113 0.03482121 0.07948143 0.0603457
000320 c8 0a 45 3d 82 bd 0e bd a4 82 a1 bd 72 30 9c bd
       0.048105985 -0.034848697 -0.07886246 -0.07626428
000330 81 c7 31 3c c7 93 96 3d 4b 8d 3b bc 95 3a 9e 3b
       0.010850788 0.07352405 -0.011447261 0.004828761
000340 39 5d 41 bd 1a e4 50 3d 9a 04 8e 3d 3f 4a 95 3d
       -0.047208045 0.050998785 0.069344714 0.07289552
000350 c0 2c 09 bd ce 36 2b 3d 1a 4b dc bc 89 47 47 3d
       -0.033489943 0.041800313 -0.02689128 0.048652206
000360 1b ec 07 bd 7d e2 b0 3c 9e c3 9f bd 31 02 a2 bd
       -0.033184152 0.021592373 -0.07800983 -0.07910574
000370 b0 7d 92 bd 25 62 60 3d 4b 65 8e 3d 15 77 81 bd
       -0.07152879 0.054781098 0.06952914 -0.06321541
000380 8e df e5 3c 5c 39 a3 3d 33 c3 a3 3d 87 71 45 bd
       0.0280607 0.07969925 0.07996216 -0.04820397
000390 b6 ed 4c 3b b8 d4 b8 39 65 c1 5c bd ec 76 9b 3d
       0.0031269616 0.00035253703 -0.053895373 0.07591042
0003a0 6f fc a8 3d 71 f0 83 3d 50 df 09 3d 48 e0 13 bd
       0.08251273 0.06442345 0.033660233 -0.036102563
0003b0 e5 38 4e bc ff 24 c4 bc c3 ce 94 3d 2e 67 a7 bc
       -0.012586807 -0.023943422 0.07265999 -0.020434942
0003c0 8d 85 75 3c 0d ae ba 3c b3 53 78 bc 55 28 60 3d
       0.014985454 0.022788072 -0.015156674 0.054725964
0003d0 54 4d b5 3d 2a 81 11 3d 59 e7 8c bd dc 0d 19 bb
       0.0885264 0.03552357 -0.068800636 -0.0023354208
0003e0 48 f9 94 bc 73 6f 9f 3d 70 4d 42 3d 72 12 54 bd
       -0.018185273 0.07784929 0.04743713 -0.051775403
0003f0 50 41 df bc 43 8e 83 bd 4b ba bd bc 0e 63 85 bd
       -0.027252823 -0.06423619 -0.02316012 -0.06513034

layers.2.vtrans.weight f4 [128, 128]
000000 56 63 94 3d b8 10 9f bd ab 5c 92 bc f5 4d e6 bc
       0.07245509 -0.07766861 -0.017866453 -0.028113345
000010 e2 a2 1a bd dd 57 4b 3d 2a a6 b7 bc ae d7 94 3d
       -0.037752993 0.04964434 -0.0224181 0.072677
000020 d6 07 4f 3d cc 9b 2f 3d 0d 4d 6b bd 68 b5 e4 3c
       0.050544582 0.04287319 -0.05744653 0.027918532
000030 26 90 86 bd d2 66 dd bc 6f 7b c6 3d 95 0a a2 bd
       -0.06570463 -0.027026568 0.09691512 -0.079121746
000040 81 6a f4 3b 8e 5d 42 bd 3c 34 51 bc b1 88 c3 bc
       0.0074589853 -0.047452502 -0.012768801 -0.02386889
000050 d0 b1 34 bc 92 68 a4 3d 1e 07 18 bd a2 96 82 bd
       -0.011028722 0.08027758 -0.037116162 -0.06376387
000060 b7 12 01 3c 59 e3 cb bd 1c a7 c3 bd 54 97 a5 bd
       0.007877997 -0.099554725 -0.09553358 -0.08085504
000070 74 c6 4d 3d 2b 91 27 3c 7c ab 58 3d 06 02 06 3c
       0.050238088 0.010227482 0.052897915 0.008179193
000080 2e ec 17 3c f0 43 32 bd a7 aa 33 3d c2 81 9a bd
       0.009272618 -0.04352182 0.04386392 -0.075442806
000090 ff 72 c5 bd 0a 18 cb bc 61 30 bd 3d 8c cd a2 bc
       -0.096410744 -0.024791736 0.09237743 -0.019873403
0000a0 d3 6f 14 3c 4e 11 36 bd 67 37 d6 bb 0d 52 03 3d
       0.009059864 -0.044450097 -0.006537366 0.03206067
0000b0 fd 7d 98 bd 58 ce bf 3c 73 f1 b1 3d 1e e3 fe 3c
       -0.07445905 0.023413822 0.08688631 0.031114157
0000c0 11 65 9b 3d 3e 43 c1 bd b3 03 7b 3d 03 ed 88 bd
       0.07587636 -0.094366536 0.061282825 -0.066858314
0000d0 80 04 fa 3c d9 22 de bc db bd 68 3c ae 21 95 3d
       0.030519724 -0.027116226 0.014205421 0.072818145
0000e0 b3 6a c2 3d f5 7a b5 bb a5 20 d7 3b 2d e8 ba b8
       0.094930075 -0.0055383393 0.006565171 -8.912417e-05
0000f0 bc ab c3 bd d1 24 3f 3d 88 30 c7 3c 0f b5 81 3d
       -0.0955424 0.04666597 0.024315134 0.06333362
000100 87 e7 9c ba f5 a2 67 bd 2a 95 20 3c 43 58 87 bd
       -0.0011970856 -0.056551892 0.0098011885 -0.066086315
000110 31 9b 12 bd 16 a4 74 3a bb dd 96 3d 47 a4 21 3d
       -0.035792533 0.0009332312 0.073665105 0.039463308
000120 33 a7 10 3d 4e 1d 99 bc a6 de bd bd 30 64 92 bc
       0.035315704 -0.018690731 -0.092709824 -0.017870039
000130 04 9b 68 bd b1 31 ff 3c 41 3b ff 3c ac b8 9a 3d
       -0.05678846 0.031151624 0.031156184 0.075547546
000140 b5 b8 55 3d 42 d4 f0 38 e3 2e c8 3c dd 68 87 bd
       0.052178103 0.00011483628 0.02443642 -0.06611798
000150 83 27 cc ba 67 5e 30 bd 45 05 81 bc 0d e1 07 bc
       -0.001557574 -0.04305878 -0.015749583 -0.008293402
000160 56 e2 42 3d a3 57 00 bb 0d d3 87 bd f6 db 49 3c
       0.047579132 -0.0019583486 -0.066320516 0.012320509
000170 c0 55 bd bd 17 0f 91 bd d5 27 87 bd fc af e7 bc
       -0.09244871 -0.07082956 -0.06599394 -0.028282158
000180 83 8b 53 3d 42 ae 8e bd d3 e2 53 ba 5a bf 8f bd
       0.05164672 -0.06966831 -0.00080828107 -0.07018919
000190 39 51 80 bd 19 9f 4b bd 29 29 8b bd 94 ef e4 3a
       -0.06265492 -0.049712274 -0.0679496 0.0017466419
0001a0 62 a9 bf bd 6e 4a ba 3d 2e 93 35 bd a3 ee ea bc
       -0.09358479 0.090962276 -0.044329815 -0.028678244
0001b0 d0 9b 86 3d 3e 43 99 3d 07 c7 3d bc 1a 73 cb bd
       0.065726876 0.074835286 -0.011583096 -0.09934063
0001c0 d7 17 0d 3d 6a 99 10 bd 04 59 07 bd cd 65 a9 bd
       0.034446564 -0.035302557 -0.033043876 -0.0827137
0001d0 46 52 3e 3d 43 24 d3 3c 04 40 99 bc e7 b1 fc bc
       0.04646518 0.025774127 -0.018707283 -0.03084655
0001e0 70 78 09 bd ee 99 55 bd 36 78 26 bc 57 c5 8b bd
       -0.033562124 -0.052148752 -0.010160496 -0.06824749
0001f0 db a1 59 ba 27 17 6a 3d bb 9e 59 3d 98 24 c1 3c
       -0.00083020114 0.057150986 0.053129893 0.02357702
000200 57 18 c1 bc 5b 6c 57 bd 9b 36 16 3d 97 b5 b2 bd
       -0.023571176 -0.05259357 0.03667317 -0.08726042
000210 c5 ac 6a bd 87 79 e9 3c ab bd fe bc c2 9f db bc
       -0.057293672 0.028500332 -0.0310963 -0.026809577
000220 78 e5 a1 3d 5b fb 12 3d 05 b5 6c 3d 2b ea 51 3c
       0.07905096 0.035884243 0.05778982 0.012812178
000230 00 96 67 3b e5 a4 af 3d 7f 90 27 3c f3 e0 4f 3d
       0.003533721 0.08576373 0.010227322 0.050751638
000240 f6 bf b8 3b 83 c7 d3 3c b5 78 8b bd 7a 7d 81 bc
       0.005638118 0.02585197 -0.068101324 -0.015806902
000250 81 84 61 3b b6 67 6e bd 9d 39 83 bc a6 2f 73 3d
       0.0034411254 -0.058204375 -0.016018683 0.059371613
000260 d7 48 b7 3d 04 19 a3 3d c4 de a6 3d 24 5c ad 3d
       0.0894944 0.07963756 0.08147958 0.0846484
000270 a2 16 e5 3b cf 82 7a bd dc 8d 88 3c 85 3a 84 3c
       0.0069912234 -0.061159905 0.016669206 0.016141186
000280 f6 35 ff ba f6 d8 3b bc de 39 b8 bd 41 1a 55 bd
       -0.0019471038 -0.011465302 -0.08995412 -0.05202699
000290 75 8f 7e bd 0e 8b 78 bd 25 37 57 bd d9 b2 da bb
       -0.06214853 -0.060679488 -0.052542824 -0.0066741523
0002a0 04 2e 98 3c 3f af b1 bd 42 32 6d bc fc b5 9d bd
       0.01857663 -0.08676004 -0.014477314 -0.077007264
0002b0 82 6f 2f bd 31 5e f3 3c 95 c8 08 bd 88 af a1 3c
       -0.04283095 0.029708 -0.033394415 0.01973702
0002c0 05 dd 45 3d 7b 68 2c bd 3c ee e2 bc 2a 8c 03 bd
       0.048306484 -0.042091828 -0.02770149 -0.032116093
0002d0 9d 53 6c bd 84 13 b7 3d 04 ef ca 3c c1 4d aa 3d
       -0.057696927 0.08939269 0.024772175 0.08315612
0002e0 98 47 b9 bd fe 64 72 3d c1 dd b4 bc 44 06 2c bd
       -0.090468585 0.059178345 -0.022078397 -0.041998163
0002f0 61 45 76 b8 cc 0b 9e bd b4 ac 6c 3d 1a b0 96 bd
       -5.8715585e-05 -0.07717094 0.05778189 -0.073578075
000300 fc f1 2a 3d c9 21 ad bd 0f 47 18 3d 2f 46 9a 3d
       0.04173468 -0.0845371 0.03717714 0.07532918
000310 0f 33 8c bd c6 f2 f2 bc ed 48 3b bd ec 83 83 3d
       -0.06845676 -0.029656779 -0.045723844 0.064216465
000320 86 ba 5b bd 2d 9c 9b 3d f9 22 54 bc 9c 11 7c bd
       -0.05364468 0.075981475 -0.012947791 -0.06154023
000330 8f 2c a2 bd ec fd 82 3d af cb b8 bc 6c 81 d0 bc
       -0.07918655 0.06396088 -0.022558061 -0.025452338
000340 b8 5d 41 3d be 35 9b 3c af c2 a7 bd 2e 05 64 bb
       0.047208518 0.018946525 -0.0819143 -0.0034793126
000350 fc 6a 3e 3d 49 66 dc bb 7d 75 1d bd e8 84 e6 3b
       0.046488747 -0.0067260605 -0.038442124 0.0070348866
000360 fb 8c b0 bd 3c 5c a7 3c fe 2f 84 3d 68 0d 73 bd
       -0.0862064 0.020429723 0.06454466 -0.059338957
000370 33 2d 00 3d fa e3 57 3c f3 7a 90 3d c1 0f 94 bd
       0.031293105 0.013176912 0.07054701 -0.07229567
000380 3a 22 56 3d f0 0a 9b 3d 00 32 eb 3c 1c a4 11 bb
       0.052278735 0.075704455 0.028710365 -0.002222306
000390 f3 fe ab 3d d1 2d 8c 3d 80 51 4c 3c b7 77 a8 3d
       0.08398237 0.06844676 0.012470603 0.08225959
0003a0 1f 5a 0d 3d 3c 58 28 bd 54 a2 9c 3d b5 75 69 3b
       0.034509774 -0.04109977 0.07648149 0.0035623137
0003b0 0b 3d 38 bd f7 68 80 bd fe e9 97 3d 70 c5 01 bd
       -0.04498009 -0.062700205 0.07417677 -0.03168243
0003c0 e1 b3 79 bc 37 57 a1 bd df af a1 3d b2 10 55 bd
       -0.01524064 -0.07877963 0.07894873 -0.052017875
0003d0 b6 c3 df bc 39 3e 84 3d 9c de 63 3d d6 7b 1e 3c
       -0.027315002 0.064571805 0.05563222 0.0096730795
0003e0 6f 2c 9e 3d cd f8 29 3d 63 20 85 bd cc 14 5a 3d
       0.07723319 0.04149704 -0.06500318 0.05324249
0003f0 b0 14 b3 3c 5e f9 a2 bd f9 a3 08 bb fd dd 16 3d
       0.02186045 -0.07957719 -0.0020849688 0.0368328

layers.2.norm1.weight f4 [128]
000000 08 d6 7d 3f b9 6e 80 3f b3 02 80 3f 37 0c 7f 3f
       0.9915471 1.003379 1.0000824 0.99628013
000010 19 0b 7e 3f 97 7b 81 3f 70 4e 80 3f 5b 20 7f 3f
       0.99235684 1.0115842 1.0023937 0.99658746
000020 a7 56 80 3f c8 79 80 3f cc 59 7f 3f 93 2e 81 3f
       1.0026444 1.0037165 0.99746394 1.0092338
000030 59 7f 81 3f 25 52 81 3f 98 45 81 3f 2d 09 7c 3f
       1.0116988 1.0103194 1.0099363 0.984515
000040 ed 36 80 3f a9 6a 81 3f 7d 16 7e 3f c8 99 7d 3f
       1.0016762 1.0110675 0.99253064 0.99062777
000050 1e 9c 7f 3f 99 c7 7d 3f aa 17 82 3f 36 77 7d 3f
       0.9984759 0.99132687 1.0163472 0.99010026
000060 cf 89 80 3f c8 da 80 3f bd da 7e 3f 01 23 81 3f
       1.0042056 1.0066767 0.9955252 1.0088807
000070 cc e0 7d 3f ae 1e 81 3f 40 f2 7e 3f 6c df 7d 3f
       0.9917114 1.0087488 0.99588394 0.9916904
000080 ed 02 7e 3f f1 10 7d 3f 48 5c 7e 3f b3 37 80 3f
       0.99223214 0.98853976 0.9935956 1.0016998
000090 40 0e 81 3f 75 98 80 3f 66 98 7f 3f d3 d6 81 3f
       1.0082474 1.0046526 0.99841917 1.0143684
0000a0 e6 71 7f 3f 59 a6 7d 3f 88 79 81 3f 81 30 81 3f
       0.9978317 0.9908195 1.0115213 1.0092927
0000b0 4b dd 7e 3f ae 57 81 3f c1 0e 81 3f 0e 65 7d 3f
       0.99556416 1.0104883 1.0082628 0.9898232
0000c0 fa a6 81 3f 7f 0c 7f 3f 99 b6 7d 3f 2a 17 7f 3f
       1.0129082 0.9962844 0.99106747 0.9964472
0000d0 b7 c2 80 3f ff 3d 7d 3f 90 e8 80 3f 44 2f 81 3f
       1.0059422 0.98922724 1.0070972 1.0092549
0000e0 78 c1 7e 3f 28 f9 7c 3f b0 62 80 3f 72 59 7e 3f
       0.9951396 0.9881768 1.0030117 0.9935523
0000f0 31 3b 81 3f 0a 0c 81 3f ed c4 80 3f 7a 57 7f 3f
       1.0096189 1.0081799 1.0060097 0.99742854
000100 cf d1 81 3f 90 f3 80 3f 88 73 81 3f a4 1f 7d 3f
       1.0142154 1.0074329 1.0113382 0.98876405
000110 70 41 7f 3f ff 52 81 3f 87 7d 7e 3f 3a 96 7d 3f
       0.99709225 1.0103453 0.9941029 0.9905735
000120 ad 04 80 3f a3 5e 7e 3f 33 f5 80 3f 98 f3 80 3f
       1.0001427 0.99363154 1.0074829 1.0074339
000130 18 75 7d 3f 62 26 81 3f 06 6a 7e 3f 2d 62 7d 3f
       0.99006796 1.0089839 0.9938053 0.9897793
000140 bd 49 7b 3f 07 0e 7f 3f 8d 2a 81 3f 5f 93 7d 3f
       0.9815939 0.9963078 1.009111 0.99052995
000150 e2 0b 80 3f 43 3a 7c 3f 57 f9 80 3f 8c 7a 81 3f
       1.0003626 0.985264 1.0076092 1.0115523
000160 02 c8 7d 3f 8e 89 7e 3f 2c ab 80 3f 72 65 7d 3f
       0.9913331 0.9942864 1.0052238 0.9898292
000170 0f 01 7e 3f 3f 66 7d 3f c8 55 80 3f 94 06 7e 3f
       0.99220365 0.9898414 1.0026178 0.9922879
000180 0f 66 7c 3f d2 f7 80 3f b3 41 7e 3f 4e 6c 7e 3f
       0.9859323 1.0075629 0.99319 0.9938401
000190 a0 d3 81 3f 7d 34 81 3f c3 71 7f 3f b7 47 7e 3f
       1.0142708 1.0094143 0.9978296 0.9932818
0001a0 12 9d 81 3f 28 52 7e 3f f8 e7 7e 3f 9c f4 80 3f
       1.0126059 0.9934411 0.99572706 1.0074649
0001b0 e1 db 80 3f 42 36 81 3f 12 a1 81 3f 51 35 81 3f
       1.0067102 1.0094683 1.012728 1.0094396
0001c0 aa d7 81 3f 2f f3 7e 3f 17 dd 81 3f 51 78 81 3f
       1.014394 0.9958982 1.0145596 1.0114843
0001d0 b4 48 7e 3f 88 18 7f 3f 3e 07 7e 3f 71 ed 7f 3f
       0.99329686 0.99646807 0.992298 0.9997168
0001e0 71 2a 7f 3f e0 4e 81 3f a1 7c 7d 3f 2c 2f 7e 3f
       0.99674135 1.0102196 0.99018294 0.9929073
0001f0 6d ca 7d 3f d1 38 7e 3f 88 7a 7e 3f f9 39 81 3f
       0.99137 0.99305445 0.9940572 1.0095817

layers.2.norm1.bias f4 [128]
000000 fe d6 0a 3c 43 91 5d bb 6c 5e e8 bb 48 5f 77 bb
       0.00847411 -0.0033808507 -0.007091334 -0.0037746
000010 ff 7f fd 3b 39 5b 3c 3c e8 a5 1d 3b e5 06 60 bb
       0.0077362056 0.011496359 0.0024055187 -0.0034183797
000020 95 65 2d bb ba 0c 74 3b f7 e2 26 bb 11 f7 14 3c
       -0.0026458253 0.003723903 -0.0025464871 0.009092108
000030 64 1f 3e bc ba 29 22 bc b0 f5 21 3c 47 05 7f 3c
       -0.011604164 -0.009897644 0.009885237 0.015565223
000040 5b 8b dd ba 82 16 34 3c 0a 38 f6 3b 97 0f 1a 3c
       -0.0016902493 0.010991694 0.0075140046 0.009403131
000050 55 b9 c6 ba 6d af 0e bc ea 9c 84 3c d7 4e 24 3c
       -0.0015161434 -0.008708817 0.016188104 0.0100285625
000060 53 36 8a bb f8 b5 d3 bb f3 e7 92 3b 89 0f 10 bc
       -0.0042179017 -0.0064609013 0.004483217 -0.008792766
000070 b1 4e 08 bc 1b 1b 05 bc 59 14 87 bb 38 86 0a 3c
       -0.008319543 -0.008124138 -0.0041222987 0.008454852
000080 44 cc ff 3b f8 ef 3d bc 31 76 d3 bb bf 04 df ba
       0.007806333 -0.011592858 -0.0064532985 -0.0017014964
000090 29 88 06 bc 05 38 98 bb 5e 50 cf ba 6d ce 66 bc
       -0.008211174 -0.00464535 -0.0015816798 -0.014087302
0000a0 78 48 0e bb da ea 1c bc 86 ea 30 3c 35 b0 17 3c
       -0.0021710675 -0.009577477 0.010798102 0.00925832
0000b0 89 c6 91 bb 4b 3d 2b bc d2 3e 05 3c bc 46 27 3c
       -0.004448716 -0.010451625 0.008132653 0.0102097355
0000c0 ad 65 51 3c dc 11 74 3b 9f be 13 bc d1 b9 69 bb
       0.012780589 0.003724209 -0.009017616 -0.0035663734
0000d0 f4 3d c2 bb 07 ad 31 3c 20 74 e6 3b 66 6b 15 3c
       -0.0059277955 0.010844476 0.007032886 0.009119844
0000e0 f7 86 9f bb 8a 7d 42 bc d5 5f 45 3b a7 9f e1 3b
       -0.004868384 -0.011870751 0.0030116935 0.006885487
0000f0 8e 94 1c bc 92 69 05 bc 05 3e c4 3b 5c 11 29 bb
       -0.009556903 -0.008142846 0.0059888386 -0.00257977
000100 9c 24 67 bc 01 5c f2 3b ec b0 35 3c f9 6a 3a 3c
       -0.014107849 0.0073962216 0.011089545 0.011378043
000110 97 17 3f 3b 5e ae 25 3c 9c 8b c1 3b 6b fb 1a 3c
       0.0029158348 0.010112373 0.0059065353 0.009459357
000120 e5 bd 12 b9 9b c1 d1 bb 27 1c f4 bb bb 4f f0 bb
       -0.00013994386 -0.0064012534 -0.007449645 -0.0073337234
000130 a4 44 24 3c 4f 7a 12 3c 21 74 cb 3b 41 0b 28 3c
       0.010026131 0.008940293 0.006208912 0.010256589
000140 94 7b 97 3c ba 4e 72 bb b2 c9 14 3c fd cb 1c bc
       0.018491544 -0.0036973194 0.009081291 -0.009570119
000150 2b 58 bc 39 7c c0 72 3c 10 49 f8 3b 1a d2 3b bc
       0.00035923845 0.0148164 0.007577069 -0.011463666
000160 5a 90 0e bc a9 68 bc bb 31 03 a9 3b 80 43 27 bc
       -0.008701408 -0.005749781 0.005157851 -0.010208964
000170 37 7e 04 3c 0a 10 27 bc 8d 43 2b 3b c4 6c fd 3b
       0.008086733 -0.010196695 0.0026132793 0.007733913
000180 6a d9 68 bc 4b 2d f3 3b 48 11 e2 bb 3d bf ca bb
       -0.014211992 0.007421171 -0.0068990327 -0.006187348
000190 d7 36 68 bc 8b a1 19 bc 07 62 0e bb 46 48 e2 3b
       -0.014173231 -0.009376894 -0.002172591 0.0069055883
0001a0 6a 8d 4b bc 40 6b d9 bb 90 a8 8c 3b f4 8f f3 3b
       -0.012423852 -0.0066350996 0.004292555 0.007432932
0001b0 51 a9 da 3b 25 a9 19 3c 38 0e 4e bc dc 6d 1a bc
       0.006673016 0.009378706 -0.012576632 -0.009425607
0001c0 91 ad 65 bc 6b e7 86 bb 3e 72 6a 3c 1d 56 3a bc
       -0.014018432 -0.0041169426 0.014309464 -0.01137307
0001d0 86 be dc bb 27 89 67 3b fc 33 fd bb 2b 13 97 39
       -0.0067365794 0.0035329552 -0.0077271443 0.00028815246
0001e0 d2 a2 55 bb 90 99 20 bc 7c 64 21 3c e8 c7 e9 3b
       -0.003259827 -0.009802237 0.0098506175 0.0071344264
0001f0 96 55 0e bc 2a 9b e8 bb 1b 78 c3 bb 59 1d 1c 3c
       -0.008687397 -0.007098575 -0.0059652454 0.009528481

layers.2.norm2.weight f4 [128]
000000 17 cd 7d 3f 4d 8c 80 3f d6 91 80 3f 1e 45 81 3f
       0.9914107 1.0042816 1.0044506 1.0099218
000010 c5 c3 80 3f f8 51 80 3f 4b 3b 82 3f 05 66 81 3f
       1.0059744 1.0025015 1.0174345 1.0109259
000020 f0 1d 80 3f d7 70 7e 3f 79 ab 7e 3f a0 8b 81 3f
       1.0009136 0.9939093 0.99480397 1.0120735
000030 f3 8a 80 3f 7a 95 7f 3f f9 79 81 3f 12 24 80 3f
       1.0042404 0.9983746 1.0115348 1.0011008
000040 90 54 80 3f f2 96 81 3f e6 b6 81 3f 6c 4c 7f 3f
       1.0025806 1.012419 1.0133941 0.99725986
000050 b4 21 80 3f b3 89 80 3f 4c d4 80 3f 7c 96 7f 3f
       1.0010285 1.0042022 1.0064788 0.99838996
000060 fd 09 80 3f fa 79 81 3f dd b7 7e 3f 1b 45 7f 3f
       1.0003048 1.0115349 0.99499303 0.9971482
000070 42 4d 7e 3f 9a 4b 81 3f b6 1b 81 3f 2a 43 7f 3f
       0.99336636 1.0101197 1.0086582 0.9971186
000080 52 80 7e 3f 7f 9b 7d 3f 4f 17 7f 3f 14 39 7e 3f
       0.9941455 0.99065393 0.9964494 0.99305844
000090 40 df 80 3f e1 b0 80 3f c5 e3 7d 3f 3a 66 80 3f
       1.006813 1.0053979 0.99175674 1.0031197
0000a0 19 4b 7e 3f 47 dc 81 3f c8 91 81 3f 2e cb 80 3f
       0.9933334 1.0145348 1.0122614 1.0062006
0000b0 bc a7 80 3f 18 ae 80 3f 50 d3 7f 3f 6e 52 80 3f
       1.0051188 1.0053129 0.9993181 1.0025156
0000c0 bd 1d 81 3f 0d b8 81 3f a8 b9 7e 3f 77 e8 81 3f
       1.00872 1.0134293 0.9950204 1.0149068
0000d0 1a d7 80 3f 16 ff 7d 3f 40 e3 80 3f 97 11 81 3f
       1.0065644 0.99217355 1.0069351 1.0083493
0000e0 90 60 7f 3f 4f f2 7d 3f ab 90 80 3f ee 7e 81 3f
       0.9975672 0.9919786 1.0044149 1.0116861
0000f0 c9 df 7f 3f af 9a 81 3f f9 a8 80 3f 11 3c 81 3f
       0.99950844 1.0125331 1.0051566 1.0096456
000100 12 b2 7e 3f 90 6e 81 3f d5 81 81 3f 6d ab 7d 3f
       0.99490464 1.0111866 1.0117747 0.990897
000110 e4 d6 7e 3f 11 1f 81 3f e5 70 7f 3f 99 0a 80 3f
       0.9954665 1.0087606 0.9978164 1.0003234
000120 1b 42 81 3f 24 e6 7f 3f c7 74 7f 3f ea f3 80 3f
       1.0098299 0.9996054 0.99787563 1.0074437
000130 1c 06 82 3f 64 e0 80 3f 6d 0c 80 3f e5 e0 7d 3f
       1.0158114 1.0068479 1.0003792 0.99171287
000140 a3 26 7e 3f c8 82 80 3f 4c c6 80 3f 74 87 7f 3f
       0.99277705 1.0039911 1.0060515 0.9981606
000150 e6 c7 7e 3f 8e 65 7d 3f 87 8c 80 3f 88 e1 7e 3f
       0.9952377 0.98983085 1.0042886 0.99562883
000160 94 ba 7d 3f ac 40 7e 3f 00 5d 80 3f 32 91 7d 3f
       0.9911282 0.9931743 1.0028381 0.99049675
000170 13 ef 81 3f 82 e2 7d 3f f8 3a 7d 3f 68 be 7d 3f
       1.0151085 0.9917375 0.98918104 0.9911866
000180 a7 b8 7d 3f 6d b2 80 3f 2d 97 7e 3f e0 7f 7e 3f
       0.9910988 1.0054451 0.99449426 0.9941387
000190 90 a6 80 3f fe f8 80 3f ba f2 80 3f aa a2 7f 3f
       1.0050831 1.0075986 1.0074074 0.9985758
0001a0 e2 53 80 3f d3 d7 80 3f ad e3 7d 3f a0 b6 80 3f
       1.0025599 1.0065864 0.9917553 1.0055733
0001b0 d4 ad 80 3f 3b 98 81 3f eb 5c 7f 3f 29 6c 7d 3f
       1.0053048 1.0124582 0.99751157 0.98993164
0001c0 43 4c 81 3f 07 fb 7c 3f 07 a3 81 3f 50 3a 81 3f
       1.0101398 0.9882054 1.0127877 1.009592
0001d0 ca 2e 80 3f c2 5e 7e 3f ca f9 7d 3f ae 5d 80 3f
       1.0014279 0.9936334 0.9920927 1.0028589
0001e0 12 b0 80 3f 59 8a 80 3f 16 3b 7f 3f 11 a2 80 3f
       1.0053732 1.004222 0.99699533 1.0049459
0001f0 c1 d8 7e 3f 79 46 81 3f 84 38 81 3f f4 c7 80 3f
       0.9954949 1.0099632 1.0095372 1.0061021
