transformer_training/best_sweep_checkpoint/model/sp500_master_best.pth (torch, 792656 bytes, 30 tensors)

feature_gate.trans.weight f4 [2, 2]
0	0xbee30586	-0.44340152
1	0xbbb1b58e	-0.0054232543
2	0xbeeb6aef	-0.4598002
3	0xbd4cb780	-0.049979687

feature_gate.trans.bias f4 [2]
0	0xbef84616	-0.4849097
1	0xbf1fa5df	-0.62362474

layers.0.weight f4 [128, 2]
0	0x3d823d94	0.06359401
1	0x3f2688f5	0.6505273
2	0xbde2b976	-0.1107053
3	0xbf35d233	-0.71023864
4	0x3ef17363	0.47158346
5	0x3eb56057	0.35425064
6	0x3e0db6ef	0.13839315
7	0x3cdf0a61	0.027226629
8	0x3f22e339	0.63627964
9	0xbf1e3ab9	-0.61808354
10	0xbe581905	-0.21103294
11	0x3e785573	0.24251346
12	0x3f025b5c	0.50920653
13	0x3e4132fe	0.18867108
14	0x3e6a44ce	0.2287781
15	0x3f025afe	0.50920093
16	0xbe82adfd	-0.25523368
17	0x3f29d1eb	0.66335934
18	0x3f342a47	0.7037701
19	0xbbf3dea2	-0.0074423114
20	0xbe89a780	-0.26885605
21	0x3ddd9c8b	0.10820874
22	0x3f014c33	0.50506896
23	0xbe02211f	-0.12707947
24	0xbd553440	-0.052051783
25	0x3f0f9fc6	0.5610317
26	0x3e7c28a1	0.24624874
27	0x3e24f6ff	0.16109847
28	0xbed9cd5d	-0.42539492
29	0x3e68ed1f	0.22746705
30	0x3eb0d1e4	0.34535134
31	0xbd52fa5a	-0.051508285
32	0xbe56d9a3	-0.2098146
33	0xbf186acb	-0.59537953
34	0x3ea2d231	0.31800988
35	0xbefba702	-0.49150854
36	0x3e4a3d94	0.19750053
37	0x3ec408ad	0.3828787
38	0x3de0cb4c	0.10976276
39	0xbe42b441	-0.19014074
40	0x3f0c7d9f	0.5487918
41	0xbdc438c6	-0.09581141
42	0x3ec86cbd	0.3914546
43	0xbe5a873c	-0.2134065
44	0x3dbde16f	0.09271514
45	0x3ef11946	0.47089595
46	0xbe9a12f6	-0.3009259
47	0xbf022d37	-0.5085024
48	0xbf092afd	-0.5358122
49	0x3d63864a	0.05554799
50	0x3f19304b	0.59839314
51	0xbbe5fdda	-0.007018787
52	0xbdc1ad5c	-0.09456894
53	0xbd66ed83	-0.056378853
54	0x3eeab892	0.4584394
55	0xbed27b9f	-0.4110994
56	0xbf35fcdc	-0.7108896
57	0xbd0bbb74	-0.034114316
58	0xbef18cde	-0.47177786
59	0x3ebdcfe4	0.3707267
60	0x3f0b4441	0.5440102
61	0xbed9103e	-0.42395204
62	0x3f144abb	0.5792653
63	0xbc573605	-0.013135438
64	0x3f2e931c	0.6819322
65	0xbf07e122	-0.530779
66	0xbef13995	-0.47114244
67	0xbf12b4e6	-0.5730728
68	0xbeb5e1c1	-0.355238
69	0x3f0c2098	0.54737234
70	0x3d926823	0.07148769
71	0x3c61e562	0.013787599
72	0xbee5832f	-0.44826648
73	0x3e91ba2d	0.28462353
74	0x3f33f738	0.702991
75	0x3ed80201	0.4218903
76	0xbeab58c7	-0.3346617
77	0xbe854a61	-0.2603331
78	0x3f2a9b81	0.6664353
79	0xbf063c21	-0.524355
80	0x3d65306c	0.05595438
81	0xbe467c99	-0.19383468
82	0x3eee2bf7	0.46517918
83	0xbe5ebe6a	-0.21752325
84	0x3f24a98f	0.64321226
85	0x3eb6fa19	0.35737684
86	0x3e3a180a	0.18173233
87	0xbe9a32d0	-0.30116892
88	0xbdafea43	-0.08589604
89	0xbe537708	-0.20650876
90	0x3e02b51f	0.12764405
91	0xbe74748a	-0.23872581
92	0x3e822307	0.2541735
93	0xbdc4db09	-0.0961209
94	0x3de97427	0.113991074
95	0x3d00f506	0.031483673
96	0xbeae4fad	-0.34045163
97	0x3f0e2f72	0.55541146
98	0xbe912a0e	-0.28352398
99	0xbf1df735	-0.61705333
100	0xbf2bd7d0	-0.6712618
101	0xbec6de1a	-0.38841325
102	0xbeeef059	-0.46667746
103	0xbf0a3798	-0.5399108
104	0xbe0ec825	-0.13943537
105	0xbdf42f50	-0.11923087
106	0xbeb4c8ec	-0.3530954
107	0x3ed47513	0.4149557
108	0x3f1917d9	0.59802014
109	0xbe6bb6db	-0.23018973
110	0xbf2f34b1	-0.68439776
111	0xbed0be0f	-0.40770003
112	0xbe4b4086	-0.19848832
113	0xbd987a03	-0.07445147
114	0xbd88a608	-0.06672293
115	0x3e2e3d6a	0.17015615
116	0xbeea19ee	-0.45722908
117	0x3ef4015f	0.47657296
118	0x3eb6ddf5	0.35716215
119	0x3ed44335	0.41457525
120	0xbdf46bbb	-0.119346105
121	0x3eb64238	0.35597396
122	0xbda28ed4	-0.079373986
123	0xbf0423bb	-0.5161702
124	0xbe7b4eff	-0.24541853
125	0xbe75d400	-0.24006653
126	0xbf10d859	-0.5658012
127	0x3ea05ec9	0.31322315
128	0xbf04d2c8	-0.51884127
129	0xbe694d74	-0.22783452
130	0xbd40c768	-0.04706517
131	0xbdab831b	-0.08374616
132	0xbf293ac3	-0.6610529
133	0xbf2028a2	-0.62562
134	0x3f22fea1	0.6366978
135	0x3f0c7ad3	0.54874915
136	0xbf2d30a4	-0.67652345
137	0x3ef702a3	0.482442
138	0xbf2c32c4	-0.6726496
139	0xbe497b66	-0.19675979
140	0x3de2fe10	0.11083615
141	0x3ee0bd30	0.4389434
142	0xbf02acfc	-0.51045203
143	0xbdcfce60	-0.10146785
144	0x3e6a1a59	0.22861613
145	0xbd457b3b	-0.048213225
146	0x3e1677c4	0.14694124
147	0xbf137a67	-0.57608646
148	0xbec7342f	-0.38907
149	0xbeb487bb	-0.35259804
150	0xbed195e0	-0.40934658
151	0xbe319c3e	-0.17344758
152	0xbf0e726d	-0.5564335
153	0x3f020224	0.50784516
154	0x3d379c8f	0.04482704
155	0xbf122857	-0.57092804
156	0x3cab2ad4	0.020894445
157	0x3e00514a	0.1253101
158	0x3f23de96	0.64011514
159	0xbf05ab2d	-0.5221432
160	0x3e62ef1c	0.22161525
161	0x3f040545	0.5157054
162	0xbf1635ec	-0.5867603
163	0x3f2f6272	0.6850959
164	0x3e68bb1f	0.22727631
165	0xbf1324f7	-0.5747828
166	0xbe7c0063	-0.24609523
167	0x3e331a63	0.17490534
168	0xbed1ff71	-0.410152
169	0x3eece937	0.4627168
170	0xbe512dce	-0.2042763
171	0x3da9f862	0.082993284
172	0xbebbb371	-0.3666034
173	0x3f0962b2	0.5366622
174	0xbe8c6ee5	-0.27428356
175	0xbe098444	-0.13429362
176	0x3e9e37ac	0.3090185
177	0x3f08623d	0.532749
178	0xbe0c088f	-0.1367514
179	0xbf005b1a	-0.5013901
180	0xbf29e73e	-0.6636847
181	0x3ea10a15	0.31453004
182	0x3efa5ee1	0.48900512
183	0xbf21883e	-0.63098514
184	0xbf22170b	-0.6331641
185	0x3e8b3451	0.27188352
186	0x3f0a516b	0.54030484
187	0xbf2b67eb	-0.6695544
188	0xbf1c4f09	-0.610581
189	0xbe9c62bd	-0.3054408
190	0x3f0eaec4	0.5573542
191	0x3e5b2272	0.21399859
192	0x3e0fb9bb	0.14035694
193	0xbf060533	-0.52351683
194	0xbe177b35	-0.14793094
195	0xbe940047	-0.28906462
196	0x3f18c094	0.5966885
197	0x3e1bf07c	0.15228456
198	0xbed553d1	-0.4166551
199	0x3eec0c0f	0.4610295
200	0xbf3092b7	-0.6897387
201	0x3e7acd29	0.24492325
202	0xbf1e360f	-0.61801237
203	0xbe9c7e1d	-0.30564967
204	0x3ebf822a	0.37403995
205	0xbd54c083	-0.051941406
206	0xbf234f6c	-0.63793063
207	0xbd982cc4	-0.07430413
208	0xbee6134a	-0.4493659
209	0x3d98b6d7	0.07456749
210	0x3eaeef3c	0.34166896
211	0xbe124a80	-0.14286232
212	0x3e73fc71	0.23826768
213	0xbe7a879e	-0.24465796
214	0xbe26c8fc	-0.16287607
215	0xbe886a17	-0.2664344
216	0xbe4faad2	-0.20280007
217	0x3e67754f	0.22603343
218	0xbed8a640	-0.4231434
219	0x3ed6a879	0.4192541
220	0x3f18a722	0.59630024
221	0xbebb5661	-0.3658934
222	0xbee9be32	-0.4565292
223	0xbeb877ee	-0.36029
224	0x3e18659c	0.14882511
225	0x3b61c06f	0.0034446975
226	0x3e05f293	0.13080816
227	0xbe276564	-0.16347271
228	0x3e7323cb	0.23744123
229	0xbf091cd9	-0.53559643
230	0x3e8761fb	0.2644194
231	0x3f0104aa	0.5039774
232	0xbe9e3dc2	-0.30906492
233	0xbecf24e8	-0.40457845
234	0x3b9dfd00	0.0048214197
235	0xbe230041	-0.15918066
236	0x3c97989e	0.01850539
237	0x3f101f4a	0.56297743
238	0xbecc770e	-0.39934582
239	0x3f0a541e	0.540346
240	0x3ecb0581	0.39652637
241	0xbf2fc6a1	-0.6866246
242	0xbe178720	-0.1479764
243	0x3e40909f	0.18805169
244	0x3e8b16b0	0.27165747
245	0xbf1c241e	-0.6099261
246	0xbed4a62c	-0.4153303
247	0x3f101096	0.5627531
248	0x3e8db77c	0.2767905
249	0xbf1757e7	-0.59118503
250	0x3f327da3	0.69722956
251	0xbf2ef31f	-0.68339723
252	0xbe932176	-0.28736466
253	0xbe914c42	-0.28378493
254	0x3f19d626	0.6009239
255	0x3f03a3c6	0.51421773

layers.0.bias f4 [128]
0	0xbef0c517	-0.47025368
1	0x3e6ac347	0.22926055
2	0x3e897b9e	0.26852125
3	0x3ec524c7	0.3850462
4	0x3dc9f945	0.098619975
5	0x3f0eb9eb	0.5575244
6	0xbf2df416	-0.6795057
7	0xbf2ab51d	-0.66682607
8	0xbf17f52e	-0.5935849
9	0xbe9b6a62	-0.303546
10	0xbe1ee5a0	-0.15517282
11	0x3f08c1a9	0.534205
12	0x3ee502cf	0.44728705
13	0xbf2c12c4	-0.67216134
14	0xbe3c05e6	-0.18361625
15	0xbe34d7cb	-0.17660443
16	0xbe69736e	-0.22797939
17	0x3f180903	0.5938875
18	0xbd5c1129	-0.053727303
19	0x3f1c4b00	0.6105194
20	0xbe858794	-0.2608
21	0x3ebc462c	0.36772287
22	0xbf29b615	-0.6629346
23	0x3d000d58	0.031262726
24	0xbf0f68d9	-0.5601936
25	0xbeddc390	-0.43313265
26	0x3dcb676d	0.09931836
27	0x3eecd465	0.46255794
28	0xbf343884	-0.70398736
29	0xbe47bccc	-0.19505614
30	0xbe3955ba	-0.18099108
31	0x3e55e075	0.20886405
32	0xbcebf742	-0.028804425
33	0x3e058005	0.13037117
34	0x3ca6b7e7	0.020351363
35	0x3eaf1a8a	0.34199935
36	0x3e61787e	0.2201862
37	0x3dc37d46	0.095453784
38	0x3d88e82f	0.066849105
39	0x3d0a44ce	0.033757024
40	0xbf05bdb8	-0.5224261
41	0xbc86e1b5	-0.016465047
42	0xbf1a2329	-0.602099
43	0xbe13fe29	-0.14452423
44	0x3eace1de	0.33766073
45	0xbe2dc554	-0.16969806
46	0xbed7e0a7	-0.42163584
47	0xbf0fc342	-0.56157315
48	0xbe1db884	-0.15402418
49	0x3e7cdefb	0.24694435
50	0x3e847b74	0.25875437
51	0xbeda6124	-0.42652237
52	0x3de0f4c7	0.109841876
53	0x3ee8b2e4	0.45448983
54	0x3f02377e	0.50865924
55	0xbd43c5d8	-0.0477961
56	0x3f1f194b	0.6214797
57	0xbe97dd5b	-0.29661068
58	0xbe93dc9a	-0.28879243
59	0xbf1db2a3	-0.61600703
60	0xbeb5a302	-0.35475928
61	0x3ee61d2a	0.44944125
62	0x3ea32d2f	0.3187041
63	0x3eced917	0.404
64	0xbf147810	-0.579957
65	0x3f292c48	0.6608319
66	0xbe095dab	-0.13414638
67	0xbf31f4a8	-0.6951394
68	0xbf27c36c	-0.65532565
69	0xbe8175cd	-0.25285187
70	0xbdcee5a3	-0.101023935
71	0x3e36619a	0.1781067
72	0xbe82d922	-0.25556284
73	0xbef62fef	-0.48083445
74	0xbe937b77	-0.28805134
75	0x3e239107	0.15973292
76	0x3f009cad	0.5023907
77	0xbee011cd	-0.4376358
78	0xbea8681b	-0.32891926
79	0xbea3904a	-0.3194602
80	0xbf064b09	-0.52458245
81	0xbf2e39df	-0.68057054
82	0xbf03e4ae	-0.5152081
83	0xbe8aa2ed	-0.27077428
84	0x3f289016	0.6584486
85	0xbed5c92b	-0.4175504
86	0x3f1cb702	0.6121675
87	0x3f29e56e	0.66365707
88	0xbe65ddf9	-0.22447957
89	0x3f0b5c47	0.5443768
90	0xbf2360c0	-0.63819504
91	0x3f3807b6	0.71886766
92	0xbf2c9ac1	-0.67423636
93	0x3ede3c67	0.43405458
94	0xbecc66c6	-0.3992216
95	0xbef68e77	-0.48155567
96	0xbf003ef4	-0.5009606
97	0x3e973d1a	0.29538804
98	0x3f1b627f	0.6069717
99	0x3dfaf793	0.12254252
100	0x3d429069	0.047501
101	0xbed43e17	-0.4145362
102	0x3f29db95	0.6635068
103	0xbd526c28	-0.051372677
104	0x3ed6e3b4	0.419706
105	0x3f2f1444	0.683903
106	0xbf1ef354	-0.6209004
107	0xbcdad48b	-0.026712677
108	0xbf177624	-0.59164643
109	0x3e8518d1	0.25995496
110	0x3f1acf98	0.6047301
111	0x3bbb5b8b	0.0057177
112	0x3e7cea61	0.24698783
113	0xbdfa26a2	-0.122144
114	0xbf154ae3	-0.58317393
115	0xbe889b70	-0.2668109
116	0x3cb8fefe	0.022582527
117	0x3edb15c6	0.4279005
118	0x3ed8a98c	0.42316854
119	0x3defef3b	0.117155515
120	0xbf1c4917	-0.61049026
121	0xbf35f51b	-0.71077126
122	0xbda2877c	-0.07935998
123	0xbe719b54	-0.23594409
124	0x3f0ef6b0	0.55845165
125	0xbece3e0c	-0.40281713
126	0xbe432555	-0.1905721
127	0x3ecfccc3	0.40585908

layers.1.pe f4 [100, 128]
0	0x00000000	0.0
1	0x3f800000	1.0
2	0x00000000	0.0
3	0x3f800000	1.0
4	0x00000000	0.0
5	0x3f800000	1.0
6	0x00000000	0.0
7	0x3f800000	1.0
8	0x00000000	0.0
9	0x3f800000	1.0
10	0x00000000	0.0
11	0x3f800000	1.0
12	0x00000000	0.0
13	0x3f800000	1.0
14	0x00000000	0.0
15	0x3f800000	1.0
16	0x00000000	0.0
17	0x3f800000	1.0
18	0x00000000	0.0
19	0x3f800000	1.0
20	0x00000000	0.0
21	0x3f800000	1.0
22	0x00000000	0.0
23	0x3f800000	1.0
24	0x00000000	0.0
25	0x3f800000	1.0
26	0x00000000	0.0
27	0x3f800000	1.0
28	0x00000000	0.0
29	0x3f800000	1.0
30	0x00000000	0.0
31	0x3f800000	1.0
32	0x00000000	0.0
33	0x3f800000	1.0
34	0x00000000	0.0
35	0x3f800000	1.0
36	0x00000000	0.0
37	0x3f800000	1.0
38	0x00000000	0.0
39	0x3f800000	1.0
40	0x00000000	0.0
41	0x3f800000	1.0
42	0x00000000	0.0
43	0x3f800000	1.0
44	0x00000000	0.0
45	0x3f800000	1.0
46	0x00000000	0.0
47	0x3f800000	1.0
48	0x00000000	0.0
49	0x3f800000	1.0
50	0x00000000	0.0
51	0x3f800000	1.0
52	0x00000000	0.0
53	0x3f800000	1.0
54	0x00000000	0.0
55	0x3f800000	1.0
56	0x00000000	0.0
57	0x3f800000	1.0
58	0x00000000	0.0
59	0x3f800000	1.0
60	0x00000000	0.0
61	0x3f800000	1.0
62	0x00000000	0.0
63	0x3f800000	1.0
64	0x00000000	0.0
65	0x3f800000	1.0
66	0x00000000	0.0
67	0x3f800000	1.0
68	0x00000000	0.0
69	0x3f800000	1.0
70	0x00000000	0.0
71	0x3f800000	1.0
72	0x00000000	0.0
73	0x3f800000	1.0
74	0x00000000	0.0
75	0x3f800000	1.0
76	0x00000000	0.0
77	0x3f800000	1.0
78	0x00000000	0.0
79	0x3f800000	1.0
80	0x00000000	0.0
81	0x3f800000	1.0
82	0x00000000	0.0
83	0x3f800000	1.0
84	0x00000000	0.0
85	0x3f800000	1.0
86	0x00000000	0.0
87	0x3f800000	1.0
88	0x00000000	0.0
89	0x3f800000	1.0
90	0x00000000	0.0
91	0x3f800000	1.0
92	0x00000000	0.0
93	0x3f800000	1.0
94	0x00000000	0.0
95	0x3f800000	1.0
96	0x00000000	0.0
97	0x3f800000	1.0
98	0x00000000	0.0
99	0x3f800000	1.0
100	0x00000000	0.0
101	0x3f800000	1.0
102	0x00000000	0.0
103	0x3f800000	1.0
104	0x00000000	0.0
105	0x3f800000	1.0
106	0x00000000	0.0
107	0x3f800000	1.0
108	0x00000000	0.0
109	0x3f800000	1.0
110	0x00000000	0.0
111	0x3f800000	1.0
112	0x00000000	0.0
113	0x3f800000	1.0
114	0x00000000	0.0
115	0x3f800000	1.0
116	0x00000000	0.0
117	0x3f800000	1.0
118	0x00000000	0.0
119	0x3f800000	1.0
120	0x00000000	0.0
121	0x3f800000	1.0
122	0x00000000	0.0
123	0x3f800000	1.0
124	0x00000000	0.0
125	0x3f800000	1.0
126	0x00000000	0.0
127	0x3f800000	1.0
128	0x3f576aa4	0.84147096
129	0x3f0a5141	0.54030234
130	0x3f43001b	0.76172036
131	0x3f25dd29	0.6479059
132	0x3f2e7ace	0.68156135
133	0x3f3b54b0	0.731761
134	0x3f1acd3a	0.604694
135	0x3f4be4aa	0.7964579
136	0x3f087dba	0.53316844
137	0x3f58940d	0.8460091
138	0x3eef96e3	0.46794805
139	0x3f623dd5	0.883756
140	0x3ed190f0	0.4093089
141	0x3f6992c7	0.9123959
142	0x3eb6d761	0.35711196
143	0x3f6f1ea9	0.9340616
144	0x3e9f393e	0.3109836
145	0x3f734e6b	0.9504153
146	0x3e8a7617	0.2704322
147	0x3f767611	0.96273905
148	0x3e708f25	0.23492105
149	0x3f78d5f1	0.9720145
150	0x3e50ce61	0.20391227
151	0x3f7a9f09	0.9789892
152	0x3e35233a	0.17689219
153	0x3f7bf683	0.9842302
154	0x3e1d10e3	0.15338473
155	0x3f7cf87c	0.9881666
156	0x3e0825f3	0.13295726
157	0x3f7dba28	0.99112177
158	0x3debf95c	0.11522171
159	0x3f7e4b84	0.9933398
160	0x3dcc7576	0.099833414
161	0x3f7eb898	0.9950042
162	0x3db120bf	0.08648824
163	0x3f7f0a6e	0.9962529
164	0x3d996f36	0.07491915
165	0x3f7f47d1	0.9971896
166	0x3d84e660	0.06489253
167	0x3f7f75de	0.99789226
168	0x3d6636ae	0.05620449
169	0x3f7f9868	0.9984193
170	0x3d476212	0.04867751
171	0x3f7fb24f	0.9988145
172	0x3d2cacfb	0.042157155
173	0x3f7fc5bd	0.999111
174	0x3d158ac5	0.036509294
175	0x3f7fd44f	0.9993333
176	0x3d01815b	0.031617504
177	0x3f7fdf3c	0.99950004
178	0x3ce04da4	0.027380772
179	0x3f7fe76e	0.9996251
180	0x3cc23ea5	0.023711512
181	0x3f7fed93	0.99971884
182	0x3ca83682	0.020533804
183	0x3f7ff22f	0.9997892
184	0x3c91ab42	0.017781857
185	0x3f7ff5a3	0.99984187
186	0x3c7c4aa3	0.015398654
187	0x3f7ff83b	0.99988145
188	0x3c5a7a49	0.013334819
189	0x3f7ffa2c	0.99991107
190	0x3c3d31fa	0.01154756
191	0x3f7ffba1	0.9999333
192	0x3c23d657	0.009999833
193	0x3f7ffcb9	0.99995
194	0x3c0de0ba	0.008659536
195	0x3f7ffd8b	0.9999625
196	0x3bf5b916	0.0074988706
197	0x3f7ffe28	0.99997187
198	0x3bd4c9b3	0.006493771
199	0x3f7ffe9e	0.9999789
200	0x3bb8445a	0.0056233825
201	0x3f7ffef7	0.9999842
202	0x3b9f91a3	0.004869656
203	0x3f7fff39	0.99998814
204	0x3b8a2e5a	0.0042169513
205	0x3f7fff6b	0.9999911
206	0x3b6f51ea	0.003651733
207	0x3f7fff90	0.9999933
208	0x3b4f3e1c	0.0031622713
209	0x3f7fffac	0.999995
210	0x3b3376fe	0.0027384157
211	0x3f7fffc1	0.99999624
212	0x3b1b6903	0.0023713715
213	0x3f7fffd1	0.9999972
214	0x3b069467	0.0020535232
215	0x3f7fffdd	0.9999979
216	0x3ae91520	0.0017782785
217	0x3f7fffe6	0.99999845
218	0x3ac9d754	0.0015399256
219	0x3f7fffec	0.9999988
220	0x3aaec98b	0.0013335211
221	0x3f7ffff1	0.9999991
222	0x3a975c09	0.0011547814
223	0x3f7ffff5	0.99999934
224	0x3a83126d	0.0009999998
225	0x3f7ffff8	0.9999995
226	0x3a6301e1	0.0008659643
227	0x3f7ffffa	0.99999964
228	0x3a449489	0.000749894
229	0x3f7ffffb	0.9999997
230	0x3a2a3b43	0.0006493816
231	0x3f7ffffd	0.9999998
232	0x3a136a13	0.0005623411
233	0x3f7ffffd	0.9999998
234	0x39ff4fab	0.00048696747
235	0x3f7ffffe	0.9999999
236	0x39dd1721	0.00042169637
237	0x3f7fffff	0.99999994
238	0x39bf74d6	0.00036517408
239	0x3f7fffff	0.99999994
240	0x39a5cb61	0.00031622782
241	0x3f7fffff	0.99999994
242	0x398f9275	0.00027384204
243	0x3f7fffff	0.99999994
244	0x3978a80d	0.00023713727
245	0x3f800000	1.0
246	0x395753e2	0.00020535247
247	0x3f800000	1.0
248	0x393a7753	0.00017782794
249	0x3f800000	1.0
250	0x39217919	0.00015399269
251	0x3f800000	1.0
252	0x390bd46d	0.00013335208
253	0x3f800000	1.0
254	0x38f22cdd	0.00011547816
255	0x3f800000	1.0

layers.2.qtrans.weight f4 [128, 128]
0	0xbbdf493b	-0.0068141497
1	0x3da7f2fb	0.08200642
2	0x3d0f4afd	0.034983624
3	0xbd926755	-0.07148615
4	0x3ce485ec	0.02789589
5	0xbc7d2748	-0.01545126
6	0xbd28ea20	-0.041238904
7	0x3d9e2a93	0.07722964
8	0x3d920804	0.07130435
9	0x3d889afd	0.06670187
10	0xbd21a1b2	-0.039460845
11	0x3d9db0f3	0.07699766
12	0xbda121f7	-0.078678064
13	0x3c927e31	0.017882438
14	0xbcf7577c	-0.030193083
15	0x3bfdd098	0.0077458136
16	0x3c6089d1	0.013704733
17	0x3c773c87	0.015090114
18	0xbcd46392	-0.025926385
19	0xbc919ee6	-0.017775964
20	0xbda9fbe8	-0.083000004
21	0xbdaa931e	-0.083288416
22	0xbbc55566	-0.006022143
23	0xbd9067ca	-0.07051046
24	0x3d1b1c19	0.037868593
25	0x3d8f7bc5	0.07006029
26	0x3c2c57f2	0.010519015
27	0x3d0e9dc7	0.034818437
28	0x3bf323da	0.0074200453
29	0x3d49f685	0.049307365
30	0xbd3bb454	-0.04582627
31	0xbd9a703a	-0.07540937
32	0xbcde3fd6	-0.027130049
33	0xbc3bfcf3	-0.011473882
34	0x3db2c4d6	0.0872895
35	0xbaf74f11	-0.0018868168
36	0xbd82e9a3	-0.06392219
37	0xbd9fe49c	-0.07807276
38	0x3b92087d	0.0044565783
39	0xbb3d4baf	-0.0028884222
40	0xbd68c312	-0.05682666
41	0xbcc8ea94	-0.024525918
42	0xbd7247b4	-0.059150413
43	0x3ab13f61	0.0013522917
44	0x3b9da942	0.004811437
45	0xbc9363b8	-0.017991886
46	0xbbc0bcc6	-0.0058818785
47	0xbcba55f9	-0.022746073
48	0x3d3c3902	0.045952804
49	0x3d9096ef	0.07060038
50	0x3d6c6917	0.05771741
51	0xbc5d0300	-0.013489485
52	0xbd2b02ff	-0.041750904
53	0xbc899418	-0.01679425
54	0xbd3f3125	-0.046677727
55	0xbb06a853	-0.0020547106
56	0x3cd27ebf	0.025695203
57	0x3d117d44	0.035519853
58	0x3da61ac8	0.08110577
59	0x3d768a75	0.060190637
60	0xbd812f34	-0.063078314
61	0x3db28eb0	0.08718622
62	0xbd29988c	-0.041405246
63	0x3d565b7b	0.052333336
64	0xbd38cfa8	-0.04511991
65	0xbd4e3987	-0.05034783
66	0x3dac9f39	0.08428807
67	0xbdb36fa9	-0.08761532
68	0x3d173c3b	0.036922675
69	0xbd9c3cec	-0.076288074
70	0x3d3899ec	0.045068666
71	0x3d6ed4fc	0.058308586
72	0x3ca319c3	0.019909745
73	0x3c7da5ad	0.015481395
74	0x3d9a0994	0.07521358
75	0x3c843540	0.016138673
76	0xbd62ea12	-0.055399008
77	0x3d697edb	0.057005744
78	0xbd2c77c9	-0.042106424
79	0x3cbca0d1	0.023025902
80	0xbba27efc	-0.0049589854
81	0x3d721a90	0.059107363
82	0x3d39ac9a	0.04533062
83	0xbd3fde29	-0.046842728
84	0xbdb01204	-0.08597186
85	0x3d03126a	0.031999983
86	0xbd6fe077	-0.058563676
87	0x3d53bb70	0.051692426
88	0x3d9bd8d8	0.07609719
89	0xbd70851d	-0.058720697
90	0xbc8a4101	-0.0168767
91	0xbd8419a1	-0.06450201
92	0xbd2594cd	-0.04042511
93	0x3ba7ef6f	0.0051249783
94	0x3bfb6c6f	0.0076728384
95	0x3d6dd1f4	0.058061555
96	0x3d9be1a3	0.07611396
97	0x3d0e4b38	0.034739703
98	0xbd5b2875	-0.05350538
99	0xbbc1a83e	-0.0059099486
100	0x3d9bec96	0.076134846
101	0x3d217764	0.0394205
102	0xbd5e59f9	-0.054285023
103	0x3d3f0201	0.04663277
104	0xbcf67d79	-0.030089127
105	0xbd2baad9	-0.04191098
106	0xbd45aadb	-0.048258644
107	0x3d4dc561	0.050237063
108	0x3d24ef53	0.0402673
109	0xbd71939b	-0.05897866
110	0xbd18c6c9	-0.03729895
111	0x3c513a42	0.012770237
112	0xbd69a6d3	-0.05704386
113	0xbd07b9b5	-0.03313609
114	0xbc35593b	-0.0110686375
115	0xbd060462	-0.032719024
116	0xbc2957ab	-0.010335843
117	0xbdb6537d	-0.08902643
118	0x3bce6d0d	0.006299621
119	0x3dacd53c	0.08439109
120	0xbdb4cb30	-0.088278174
121	0xbda826e6	-0.08210544
122	0x3d1e05dc	0.038579807
123	0xbd982e26	-0.07430677
124	0x3d6a7433	0.057239722
125	0xbc1683a1	-0.009186656
126	0xbca0f4fe	-0.019648071
127	0xbb3caf33	-0.002879095
128	0xbd9c7951	-0.07640327
129	0xbbca550e	-0.00617469
130	0xbdacbcf6	-0.08434479
131	0x3cbb0ab6	0.022832256
132	0xbd814b34	-0.06313172
133	0x3d538f05	0.051650066
134	0x3da71960	0.08159137
135	0x3d1e20c1	0.038605455
136	0x3d0f787a	0.035027005
137	0x3c48f1f8	0.012264721
138	0x3d039b0e	0.032130294
139	0xbcfeef9c	-0.031120114
140	0x3d4c6ac7	0.04990652
141	0x3d7a4dcc	0.06110935
142	0xbcd279c8	-0.025692835
143	0xbd2fa07d	-0.042877663
144	0xbaae100e	-0.0013279931
145	0xbcc9e388	-0.024644628
146	0xbdb40772	-0.087904826
147	0x3d8f5ad7	0.06999748
148	0x3d056756	0.032569252
149	0x3d27a50b	0.04092888
150	0x3da22cd5	0.07918707
151	0x3b784cd9	0.0037887602
152	0x3cec8e85	0.028876552
153	0x3d57e12b	0.05270497
154	0x3d940d3d	0.072290875
155	0xbd8d7366	-0.06906776
156	0x3d866c04	0.06563571
157	0xbcd3baf0	-0.025845975
158	0x3d5a07a2	0.053229935
159	0x3d98c730	0.07459867
160	0x3d8ad925	0.06779698
161	0x3d4d6bf4	0.05015178
162	0xbc34df18	-0.011039518
163	0xbd9eb2dd	-0.07748959
164	0x3d45fa3d	0.04833435
165	0x3bcd6049	0.0062675816
166	0x3d94d5e9	0.072673626
167	0xbd58e917	-0.052956667
168	0xbd0f1984	-0.034936443
169	0x3d14a5b0	0.036290824
170	0xbbc0fe73	-0.0058897077
171	0x3d430a89	0.04761747
172	0xbd2d83a4	-0.04236187
173	0xbd2d3910	-0.042290747
174	0x3d04a046	0.03237941
175	0xbc205216	-0.009785196
176	0x3c923023	0.017845219
177	0x3d6a7fd7	0.057250824
178	0x3d974c2e	0.07387577
179	0xbd82c217	-0.06384676
180	0xbc7fd5b0	-0.015614912
181	0xbd92c7c0	-0.071670055
182	0x3d1f69be	0.038919203
183	0xbd6cf164	-0.057847396
184	0x3d62045f	0.05517995
185	0x3d4429c8	0.04789141
186	0xbc79951f	-0.015233307
187	0xbaa3ee03	-0.0012506846
188	0x3caa01e9	0.020752864
189	0x3da48cab	0.08034643
190	0x3d877af5	0.06615249
191	0xbd748b96	-0.059703432
192	0xbd455241	-0.048174147
193	0x3bee1ac6	0.0072663752
194	0x3c584144	0.013199154
195	0x3c9845d2	0.01858798
196	0x3ce36984	0.027760275
197	0x3d0a8902	0.033822067
198	0x3d4bf8ea	0.04979793
199	0x3d2aaef5	0.04167076
200	0xbdb5078f	-0.08839332
201	0x3d2f00e0	0.042725444
202	0xbd7f40c7	-0.062317636
203	0xbd10fa30	-0.035394847
204	0xbd57cbd0	-0.052684605
205	0xbd6e9589	-0.058248077
206	0xbd6ac3ed	-0.057315756
207	0xbb7790ff	-0.0037775633
208	0xbd1bcda7	-0.038037922
209	0x3dae8efa	0.08523364
210	0x3d10fda7	0.03539815
211	0x3db0cd98	0.08632964
212	0xbc30f1a1	-0.010799796
213	0x3c63a314	0.013893861
214	0xbd5e6488	-0.054295093
215	0x3d87eadd	0.066365935
216	0x3d15155e	0.03639733
217	0x3c9afd9d	0.01891976
218	0x3cae2adb	0.02126067
219	0xbd8b0ba4	-0.0678933
220	0x3c5f106d	0.013614756
221	0x3d3bd982	0.04586173
222	0xbd0f3fb0	-0.034972847
223	0xbc85df89	-0.016341941
224	0x3d9b1210	0.075718045
225	0x3d7808cc	0.060555264
226	0xbcbb71fe	-0.022881504
227	0x3c27995e	0.010229437
228	0x3d03492e	0.03205221
229	0x3d94b941	0.07261897
230	0x3d9deeea	0.07711585
231	0x3b92a3cb	0.004475092
232	0xbd8afd7f	-0.06786632
233	0xbc65ee22	-0.014033826
234	0x3d2aad9b	0.04166947
235	0x3c6c5827	0.014425314
236	0x3cdc662a	0.026904184
237	0xbd85decc	-0.06536636
238	0xbd86ef3a	-0.065885976
239	0x3c825b5c	0.015912704
240	0xbd8204ea	-0.063485935
241	0xbae63c9a	-0.0017565668
242	0xbdaf290e	-0.085527524
243	0x3d07988d	0.033104468
244	0x3d960901	0.07325936
245	0x3d6d7d94	0.05798109
246	0xbd14d6ce	-0.036337666
247	0x3da0b86d	0.078476764
248	0x3cde8f04	0.027167805
249	0x3d90a897	0.07063406
250	0xbd104798	-0.035224527
251	0x3d80a913	0.06282248
252	0x3cb40231	0.021973701
253	0x3d92eea2	0.07174422
254	0xbd98d2e6	-0.07462101
255	0xbcb4de5f	-0.022078691

layers.2.ktrans.weight f4 [128, 128]
0	0x3d8df2f4	0.06931105
1	0xbd905a60	-0.07048488
2	0xbca745bc	-0.020418994
3	0xbc0e1353	-0.008671599
4	0x3c85225d	0.016251737
5	0xbd3930eb	-0.045212667
6	0xbd7f0538	-0.062260836
7	0x3d44c91b	0.04804335
8	0xbd77cc7c	-0.060497746
9	0xbc75e81a	-0.015008951
10	0xbd37776e	-0.04479163
11	0xbd973621	-0.07383371
12	0xbc89a875	-0.01680396
13	0xbd0a1e14	-0.03372009
14	0x3d306db6	0.04307338
15	0xbd0634a8	-0.03276506
16	0x3b7db80c	0.0038714437
17	0x3dafb729	0.08579857
18	0x3b9c5c78	0.0047717653
19	0xbd0164de	-0.031590335
20	0x3d857aee	0.065175876
21	0xbd7a406a	-0.061096586
22	0x3d2b679a	0.04184685
23	0xbbe63661	-0.0070255254
24	0x3ca4245e	0.020036872
25	0x3c9de03a	0.019271959
26	0x3c547f38	0.012969784
27	0xbca04b33	-0.019567108
28	0x3d86d91d	0.0658438
29	0xbd081919	-0.03322706
30	0xbd93dae5	-0.07219485
31	0xbd5b69fa	-0.053567864
32	0xbd56ae50	-0.05241233
33	0x3d87c18b	0.06628712
34	0x3dabf9c8	0.08397251
35	0x3c57e64e	0.0131774675
36	0xbd8903bc	-0.066901654
37	0x3c4b2823	0.012399706
38	0x3cbbf5e7	0.022944404
39	0x3d7777b7	0.060416903
40	0x3d3e9b93	0.046535086
41	0xbcf54002	-0.029937748
42	0x3dad5e0b	0.08465203
43	0x3c6a4050	0.01429756
44	0xbd7085d5	-0.058721382
45	0x3d20070a	0.039069213
46	0xbd024259	-0.031801555
47	0xbcb42448	-0.021989956
48	0xbdb9791e	-0.090563044
49	0xbcbf7092	-0.023369107
50	0x3d64f84f	0.055900868
51	0x3d1dbf31	0.038512412
52	0x3d2cc34e	0.042178445
53	0x3d79e351	0.0610078
54	0x3dac81ab	0.0842317
55	0x3d7ddecc	0.061980054
56	0xbd517930	-0.051140964
57	0x3d396a31	0.045267288
58	0x3d55fa02	0.05224038
59	0x3d3e05e1	0.046392325
60	0x3ca5e83e	0.020252343
61	0xbc805d7b	-0.015669575
62	0x3c807aaf	0.0156835
63	0x3c5f646a	0.01363478
64	0x3d28ac75	0.041180093
65	0xbd8066b5	-0.0626959
66	0x3d929d49	0.07158906
67	0xbc34342c	-0.010998767
68	0x3d8a82bd	0.067632176
69	0xbd39ed96	-0.045392595
70	0xbc25d1f0	-0.010120854
71	0xbcef7f14	-0.0292354
72	0x3d9c4358	0.07630032
73	0xbd7ad4b7	-0.061238017
74	0xbdaf58ee	-0.08561884
75	0x3d0b56ca	0.034018315
76	0xbd0e8db5	-0.03480311
77	0xbd678632	-0.056524463
78	0xbbfecca7	-0.0077758613
79	0xbd6bd8de	-0.057579868
80	0xbdb6df13	-0.08929267
81	0x3cad0327	0.021119667
82	0xbdb525dc	-0.08845112
83	0xbd99e3bc	-0.0751414
84	0x3d56dfa6	0.05245938
85	0x3c6cb626	0.014447724
86	0xbc126526	-0.0089352485
87	0xbd638e25	-0.05555548
88	0xbdaff09f	-0.08590817
89	0xbda3db3b	-0.08000799
90	0xbd85ec0a	-0.065391615
91	0xbd50007f	-0.050781723
92	0xbd42e30b	-0.047579806
93	0xbc3bd821	-0.011465103
94	0x3d954d76	0.07290165
95	0x3d288899	0.041145895
96	0xbb988555	-0.0046545663
97	0x3cc4c7d0	0.02402106
98	0xbd6401bb	-0.055665713
99	0x3d1d9b1d	0.038478006
100	0x3ce31933	0.027721977
101	0xbc5f8e76	-0.013644805
102	0xbc895582	-0.016764406
103	0xbc355fe2	-0.0110702235
104	0x3d6a0dd0	0.05714208
105	0x3daf4a33	0.08559074
106	0xbd8eb7fa	-0.069686845
107	0x3d828046	0.063721225
108	0xbb9d9b85	-0.004809799
109	0xbdaaf7f5	-0.08348075
110	0xbc8b67de	-0.017017301
111	0xbca1d04a	-0.01975264
112	0x3d9db02b	0.07699617
113	0xbd5c2123	-0.05374254
114	0x3cc6dc61	0.024275007
115	0x3d7abe97	0.061216917
116	0xbb006ff7	-0.0019597986
117	0x3d2c3536	0.042042933
118	0xbb560319	-0.0032655655
119	0xbd5bd49e	-0.053669564
120	0x3d1a8273	0.037722062
121	0x3c9ef98f	0.019406108
122	0xbd8922bd	-0.06696079
123	0x3d3e0eda	0.046400882
124	0x3d8d89c7	0.069110446
125	0x3c5bf6f3	0.0134255765
126	0xbcd17ee9	-0.02557321
127	0xbdb2198c	-0.08696279
128	0xbdabeb8a	-0.08394535
129	0x3d9e128d	0.07718382
130	0xbd923b77	-0.07140248
131	0x3d4c17ea	0.049827494
132	0xbcdaa014	-0.02668766
133	0x3d7673c3	0.060168993
134	0x3d31e4ba	0.04343102
135	0xbce6c27c	-0.02816891
136	0x3d8a49d4	0.06752363
137	0x3d5086f3	0.050909948
138	0x3cac3857	0.021022959
139	0x3d46e618	0.04855928
140	0xbd1b9bcd	-0.03799038
141	0xbd22a8da	-0.03971181
142	0x3dabb96f	0.08384978
143	0xbd6ffa5f	-0.05858838
144	0xbce4d405	-0.02793313
145	0x3d5c12fc	0.053729042
146	0xbd3a5c5b	-0.045498233
147	0xbc09eb61	-0.008417935
148	0x3da7f58d	0.08201132
149	0xbd722c13	-0.059124064
150	0x3d506987	0.05088189
151	0x3d291aed	0.041285444
152	0xbd33a201	-0.04385567
153	0xbcb49c0e	-0.022047069
154	0xbd1aaf50	-0.037764847
155	0x3c325781	0.01088512
156	0xbd0fe655	-0.03513177
157	0x3ca77aa1	0.020444216
158	0x3dbb673a	0.09150548
159	0x3d9841d6	0.07434432
160	0x3cafc02f	0.021453945
161	0x3d68eb55	0.056865055
162	0x3d82d8a3	0.063889764
163	0xbc8c8d54	-0.017157234
164	0xbd2e9133	-0.04261894
165	0xbd17857c	-0.036992535
166	0x3d684bc0	0.056712866
167	0x3d040252	0.032228775
168	0x3d55ad5a	0.052167274
169	0xbc263733	-0.010144996
170	0xbc6adc94	-0.0143348165
171	0x3d8b8356	0.0681216
172	0xbd977282	-0.073948875
173	0xbba4fe1b	-0.0050351745
174	0x3c64dcff	0.013968705
175	0xbcbc2bd9	-0.022970127
176	0xbd44ed05	-0.048077602
177	0x3d897499	0.06711692
178	0xbd5a149b	-0.053242307
179	0x3b954d0a	0.004556303
180	0x3d91846e	0.07105337
181	0x3d21f102	0.039536484
182	0xbd6feb5e	-0.058574073
183	0x3d793134	0.06083794
184	0xbdabbec1	-0.08385993
185	0xbd2fcd6f	-0.042920526
186	0xbdb5a379	-0.088690706
187	0xbc62b1c6	-0.01383633
188	0x3c90394c	0.017605446
189	0xbd9c60da	-0.076356605
190	0xbd8103fb	-0.06299587
191	0x3d822f97	0.06356733
192	0xbd8a7061	-0.06759716
193	0x3d4d0378	0.050052136
194	0xbd92cacd	-0.071675874
195	0x3dafebc4	0.085898906
196	0xbbb3e613	-0.0054900735
197	0xbd9360bd	-0.07196186
198	0xbd851583	-0.06498244
199	0x3d3589c2	0.04432083
200	0xbd7beb63	-0.06150378
201	0xbbda5a71	-0.0066636135
202	0xbd72d95f	-0.059289332
203	0x3d066a56	0.032816254
204	0xbd28a0aa	-0.041168846
205	0xbc022591	-0.007943527
206	0x3d99bc0b	0.075065695
207	0xbd4804ce	-0.048832707
208	0xbd61cd5f	-0.055127498
209	0x3c188899	0.009309911
210	0xbd8e484c	-0.06947383
211	0x3cb88b47	0.02252735
212	0xbdac2046	-0.08404593
213	0xbd385fa0	-0.04501307
214	0xbd1875c6	-0.037221693
215	0x3a20db50	0.0006136196
216	0xbcd6a870	-0.026203364
217	0x3d1df5c8	0.038564473
218	0x3cd55de0	0.02604574
219	0x3d1c4743	0.038153898
220	0x3c2eaf82	0.0106619615
221	0xbd604007	-0.05474856
222	0x3d9bd363	0.07608678
223	0xbd2d620a	-0.042329825
224	0x3d9f981d	0.07792685
225	0x3d2fc436	0.04291173
226	0xbc06a85b	-0.00821885
227	0x3d737f1e	0.0594474
228	0xbd5244b4	-0.05133505
229	0x3abc4ce8	0.0014366182
230	0x3cd6e927	0.026234223
231	0xbc718394	-0.014740843
232	0x3d844a23	0.06459453
233	0xbdb05f8c	-0.08611974
234	0xbd813676	-0.06309216
235	0x3cc67b5c	0.024228744
236	0xbd18619e	-0.03720247
237	0xbb66eaa8	-0.003523508
238	0xbd8a090c	-0.06740007
239	0x3d7b5a48	0.061365396
240	0x3c51e8bd	0.012811837
241	0x3cb07a7b	0.021542778
242	0xbcf58a8d	-0.029973293
243	0xbd8705bb	-0.0659289
244	0x3da70730	0.08155668
245	0xbd4faf04	-0.050704017
246	0xbd3e2d5c	-0.046429977
247	0xbd4b935d	-0.049701083
248	0xbda3fce0	-0.080072165
249	0xbcbf146b	-0.023325166
250	0x3d0b22a0	0.033968568
251	0xbd167a6b	-0.03673784
252	0xbda4c8d7	-0.0804612
253	0xbd19d947	-0.037560727
254	0xbdb8bc0d	-0.09020243
255	0x3d8393af	0.06424653

layers.2.vtrans.weight f4 [128, 128]
0	0x3d4ceca7	0.050030377
1	0x3cef00f6	0.029175263
2	0x3c7efa6d	0.015562636
3	0xbd50fb12	-0.05102069
4	0x3d8d3b67	0.06896096
5	0xbd3dee99	-0.046370123
6	0x3d6353a6	0.055499695
7	0x3ca88c7f	0.020574806
8	0xbd852f5d	-0.065031745
9	0x3d562632	0.05228252
10	0xbda7f261	-0.08200527
11	0x3dccde5d	0.1000335
12	0xbd41bf18	-0.04730138
13	0xbcb8c79c	-0.022556119
14	0xbd2e25c8	-0.0425165
15	0xbd4f79bc	-0.050653204
16	0xbd0b4f1d	-0.034010995
17	0x3cb0383a	0.021511186
18	0x3d84ba19	0.06480808
19	0x3d34fcf8	0.044186562
20	0x3d1e23a9	0.038608227
21	0x3d71a659	0.058996532
22	0xbd5d5764	-0.05403842
23	0xbd97856a	-0.073984936
24	0xbd4bd757	-0.04976591
25	0x3d252768	0.040320784
26	0xbd64337a	-0.055713154
27	0xbd4b2bc4	-0.049602285
28	0x3d29c237	0.041444983
29	0xbc799397	-0.015232942
30	0xbd0281e4	-0.031862155
31	0xbd5a928e	-0.05336242
32	0xbc8dbc7d	-0.017301792
33	0xbd0bb360	-0.034106612
34	0x3d2fc69d	0.04291402
35	0x3c3f9bf2	0.011694895
36	0x3d02d183	0.031938087
37	0xbcb9d5b6	-0.022684913
38	0xbd0064c2	-0.03134609
39	0x3bdaa489	0.006672446
40	0xbd51f5b7	-0.051259723
41	0xbd15dbfe	-0.036586754
42	0x3d160f97	0.03663596
43	0x3d4b2ce6	0.049603365
44	0xbc7921d0	-0.015205815
45	0x3d375118	0.04475507
46	0x3d0e9300	0.03480816
47	0x3d2667b8	0.040626258
48	0x3d713e7f	0.05889749
49	0x3d738e19	0.059461687
50	0x3d4d6380	0.05014372
51	0xbd9c42ac	-0.07629904
52	0xbdac496c	-0.084124416
53	0xbd0f6ff5	-0.03501888
54	0x3d24dc1d	0.04024898
55	0xbd2e96cf	-0.04262429
56	0x3d642174	0.055695966
57	0xbcc6c180	-0.02426219
58	0xbc5a04d4	-0.013306815
59	0x3da5fddb	0.0810506
60	0x3d6f303b	0.058395606
61	0xbd8a88d2	-0.06764378
62	0xbdc8424b	-0.097782694
63	0x3cc67277	0.024224503
64	0xb80c5ad2	-3.3463184e-05
65	0x3c94770a	0.018123168
66	0x3d97c37a	0.07410331
67	0x3c8c0e24	0.017096587
68	0x3d4310a5	0.047623295
69	0xbcda4775	-0.026645401
70	0xbc7027fb	-0.01465797
71	0xbd8e5024	-0.06948879
72	0xbd645c60	-0.05575216
73	0x3c714186	0.014725095
74	0xbdca3bbd	-0.098746754
75	0x3d923fb0	0.07141054
76	0x3d563e50	0.05230552
77	0x3d1bdeb1	0.038054172
78	0xbc83b56b	-0.016077718
79	0x3d0497ad	0.03237121
80	0x3da50f00	0.08059502
81	0xbdc76891	-0.09736741
82	0x3d7a98c6	0.061180852
83	0x3d65c970	0.05610031
84	0x3cbe8843	0.023258334
85	0xbd0fc53f	-0.035100218
86	0xbd5d8868	-0.054085165
87	0xbd22ce15	-0.039747316
88	0x3dbe1f02	0.09283258
89	0xbd24a81f	-0.040199395
90	0xbbbca9f6	-0.0057575656
91	0xbd1b6379	-0.03793666
92	0x3cbb7551	0.02288309
93	0xbd447acf	-0.047968682
94	0xbd9e0758	-0.077162445
95	0xbd31ebff	-0.043437954
96	0x3cc71684	0.024302728
97	0x3cbc84d4	0.023012556
98	0xbd9582d5	-0.07300345
99	0x3d836288	0.06415278
100	0xbdb55329	-0.08853752
101	0xbd2bb68e	-0.041922145
102	0xbd2fc49a	-0.042912103
103	0x3c95c0fd	0.0182805
104	0xbce34e9d	-0.027747447
105	0x3db363de	0.087592825
106	0x3d7763cb	0.060397904
107	0xbd236a11	-0.039896075
108	0xbd5b79e2	-0.053583033
109	0x3d32f832	0.04369373
110	0xbcf5418c	-0.029938482
111	0x3d5ea1e1	0.0543536
112	0xbd0a4856	-0.03376039
113	0x3dc3f0ad	0.0956739
114	0x3dce227b	0.100651704
115	0xbd4ef87e	-0.05052995
116	0xbd8560cb	-0.065126024
117	0xbcdd5db6	-0.027022224
118	0xbd39eaaf	-0.045389827
119	0x3ca6cc5a	0.020361114
120	0xbd6be996	-0.05759581
121	0x3c67d274	0.014149297
122	0x3cc20784	0.023685224
123	0xbd43c499	-0.047794912
124	0x3d347061	0.044052485
125	0x3d2a3775	0.041556794
126	0x3d8b85a0	0.06812596
127	0xbcc33c89	-0.023832576
128	0x3a91f67c	0.001113608
129	0xbca3b84c	-0.01998534
130	0x3caa89b7	0.02081762
131	0x3cdf5c2c	0.02726563
132	0x3d992d20	0.0747931
133	0x3ba81ff4	0.0051307622
134	0xbda91f95	-0.08257977
135	0xbcaba08f	-0.020950584
136	0xbd88fa49	-0.06688363
137	0x3cfd4022	0.03091437
138	0x3d6a2313	0.057162356
139	0xbd4d87ed	-0.050178457
140	0x3d7111a3	0.05885471
141	0xbd878a2b	-0.0661815
142	0xbc01f9fd	-0.007933137
143	0xbd35801b	-0.044311624
144	0x3d1b24b3	0.037876796
145	0xbcd22ef6	-0.025657158
146	0xbcf6c673	-0.030123925
147	0x3c84d95e	0.01621693
148	0xbcefc253	-0.029267466
149	0x3c60cf0f	0.013721242
150	0x3d219b93	0.039455008
151	0xbcda694f	-0.026661543
152	0x3c7050c9	0.014667698
153	0xbda6d494	-0.08146015
154	0xbd8c7124	-0.06857517
155	0xbcf0e539	-0.029406177
156	0xbd918253	-0.071049355
157	0xbc63ec89	-0.013911375
158	0xbcc0199d	-0.023449713
159	0xbdbf85ea	-0.09351714
160	0x3c7fbaed	0.015608531
161	0xbd69d748	-0.057090074
162	0xbc56803a	-0.013092095
163	0xbd2069a1	-0.039163236
164	0xbc34c161	-0.011032433
165	0xbd934485	-0.071908034
166	0x3c770ebf	0.015079199
167	0xbd88bf50	-0.06677115
168	0x3d032c36	0.032024585
169	0x3cf889d2	0.030339155
170	0xbd9804de	-0.07422803
171	0xbd6a1fac	-0.05715911
172	0xb94060a2	-0.00018346545
173	0xbd75e4b4	-0.06003256
174	0xbd29fac3	-0.04149891
175	0x3d3263c6	0.043552183
176	0x3d2045ce	0.03912907
177	0x3d57bea7	0.052672055
178	0xbd8c186e	-0.06840597
179	0xbc390e36	-0.011294892
180	0xbda567ed	-0.08076463
181	0xbb5a8c5d	-0.0033347823
182	0xbd54a576	-0.05191561
183	0x3d92dff7	0.07171624
184	0x3cea6dcd	0.02861681
185	0xbd8086d3	-0.06275716
186	0x3daf77b6	0.08567755
187	0x3d3afa9b	0.045649152
188	0xbcde0da9	-0.027106123
189	0x3c495f37	0.012290767
190	0x3d6dd298	0.058062166
191	0xbc2f2e07	-0.010692126
192	0x3d9268a4	0.07148865
193	0xbd0e63b5	-0.034763057
194	0x3d88b064	0.06674269
195	0xbcd5f43a	-0.026117433
196	0xbd6bfd2c	-0.05761449
197	0x3d5a7bf1	0.053340856
198	0x3d9ea9bb	0.07747217
199	0xbd46a68e	-0.048498683
200	0xbd168d7f	-0.036756035
201	0x3c97c923	0.018528527
202	0x3cf1be9d	0.029509837
203	0xbc943cd6	-0.018095415
204	0x3d5e680e	0.054298453
205	0x3c88fa73	0.016720986
206	0x3d2768f3	0.04087157
207	0xbd9849a4	-0.07435921
208	0x3da30582	0.07960035
209	0xbbf72326	-0.007542032
210	0x3c85a950	0.016316086
211	0x3d801caf	0.06255471
212	0xbd835b41	-0.0641389
213	0x3b1583a8	0.002281407
214	0x3d8aa15f	0.0676906
215	0xbc05c294	-0.008164067
216	0x3d3e1d10	0.046414435
217	0xbd30ab9f	-0.04313242
218	0xbd2466b5	-0.04013701
219	0xbd5c44fc	-0.053776726
220	0xbd7755f4	-0.060384706
221	0xbcb2cea4	-0.02182705
222	0xb91075fd	-0.00013776864
223	0x3c497296	0.012295386
224	0xbd8fa30f	-0.07013523
225	0xbcdec2be	-0.02719247
226	0xbcdf8205	-0.027283678
227	0x3d6353e7	0.055499937
228	0xbd93c234	-0.07214776
229	0x3d8e133d	0.06937263
230	0x3caa63dd	0.020799572
231	0x3db0273e	0.08601235
232	0x3db22a7d	0.0869951
233	0x3c5e5a84	0.013571385
234	0x3c1fc012	0.009750383
235	0xbd8fbe3a	-0.07018705
236	0x3d5e1b0c	0.054225013
237	0xbd2779c5	-0.040887613
238	0x3d9381f7	0.07202523
239	0x3d35e26b	0.044405382
240	0xbcdc7206	-0.02690984
241	0xbce67159	-0.02813022
242	0x3d851a01	0.064991005
243	0xbd0854c9	-0.033283982
244	0xbda1f267	-0.07907563
245	0x3d0b2e78	0.033979863
246	0x3d6f10fb	0.058365803
247	0x3db0fce6	0.086419865
248	0xbc54a2eb	-0.012978296
249	0xbd7440da	-0.05963216
250	0x3d3d321b	0.046190362
251	0x3d807c34	0.0627369
252	0xbd949789	-0.072554655
253	0x3d661a68	0.056177527
254	0xbd4c3285	-0.049852867
255	0x3d539d57	0.051663723

layers.2.norm1.weight f4 [128]
0	0x3f82df56	1.0224407
1	0x3f82cf3e	1.0219495
2	0x3f810f83	1.0082859
3	0x3f7ae4da	0.9800545
4	0x3f78b259	0.97147137
5	0x3f804800	1.0021973
6	0x3f80b9e9	1.0056735
7	0x3f7ba4d4	0.9829838
8	0x3f7f629a	0.9975983
9	0x3f819126	1.0122421
10	0x3f815482	1.0103915
11	0x3f7d87e3	0.9903547
12	0x3f7cf8b3	0.98816985
13	0x3f81d46a	1.0142949
14	0x3f7b2860	0.9810848
15	0x3f811dee	1.0087259
16	0x3f836efa	1.0268242
17	0x3f8235f8	1.017272
18	0x3f80b710	1.0055866
19	0x3f81a014	1.0126977
20	0x3f803244	1.001534
21	0x3f815e46	1.0106895
22	0x3f82103f	1.0161208
23	0x3f836c46	1.0267417
24	0x3f7d95c6	0.9905666
25	0x3f833638	1.0250921
26	0x3f81539f	1.0103644
27	0x3f7bccc3	0.98359317
28	0x3f80772d	1.003637
29	0x3f7f5157	0.9973349
30	0x3f7da233	0.9907562
31	0x3f806618	1.0031157
32	0x3f806fa6	1.0034072
33	0x3f82ea55	1.0227762
34	0x3f80f29f	1.0074042
35	0x3f7e5bd4	0.9935887
36	0x3f7f9ebd	0.9985159
37	0x3f817514	1.0113854
38	0x3f81b5fa	1.013366
39	0x3f82e961	1.0227472
40	0x3f7dc87d	0.99134046
41	0x3f7bb365	0.9832061
42	0x3f80a283	1.0049595
43	0x3f81a56a	1.0128605
44	0x3f7c988b	0.9867026
45	0x3f812354	1.0088906
46	0x3f7e0f2c	0.992419
47	0x3f83fd00	1.0311584
48	0x3f82f576	1.0231159
49	0x3f8094ec	1.0045447
50	0x3f7f3b13	0.99699515
51	0x3f7d1223	0.988558
52	0x3f7b4e9d	0.9816683
53	0x3f81e83f	1.0149001
54	0x3f7f8306	0.998093
55	0x3f7df11a	0.99196017
56	0x3f7cadeb	0.9870288
57	0x3f81c469	1.0138065
58	0x3f82ce21	1.0219156
59	0x3f8241e1	1.0176355
60	0x3f805c1d	1.0028111
61	0x3f820a10	1.0159321
62	0x3f7f4f18	0.9973006
63	0x3f7ff33f	0.9998054
64	0x3f7ca39f	0.98687166
65	0x3f836608	1.0265512
66	0x3f812280	1.0088654
67	0x3f7b56aa	0.98179114
68	0x3f7b45cc	0.98153377
69	0x3f7ed231	0.99539477
70	0x3f842bdd	1.0325886
71	0x3f7f685b	0.9976861
72	0x3f81a3ff	1.0128173
73	0x3f824cd8	1.0179701
74	0x3f81beba	1.013633
75	0x3f7bce3f	0.9836158
76	0x3f83a014	1.0283227
77	0x3f808474	1.0040421
78	0x3f7fe386	0.9995655
79	0x3f8099fc	1.0046992
80	0x3f7ba615	0.98300296
81	0x3f7b3d3a	0.981403
82	0x3f8017b7	1.0007237
83	0x3f81ce07	1.0141
84	0x3f80fc1d	1.0076939
85	0x3f7cc2ae	0.9873456
86	0x3f82a4fc	1.0206599
87	0x3f820559	1.0157882
88	0x3f7d5420	0.9895649
89	0x3f7c3b39	0.98527867
90	0x3f7cd9f5	0.98770076
91	0x3f81837b	1.011825
92	0x3f7bc904	0.983536
93	0x3f7ee835	0.9957307
94	0x3f80d0e8	1.0063753
95	0x3f79bd85	0.9755481
96	0x3f7e0a02	0.9923402
97	0x3f823b39	1.0174323
98	0x3f81e31c	1.0147433
99	0x3f7cc927	0.98744434
100	0x3f7f8743	0.9981577
101	0x3f80e234	1.0069032
102	0x3f7f5f28	0.9975457
103	0x3f818b83	1.0120701
104	0x3f7c47e2	0.98547184
105	0x3f81810e	1.0117509
106	0x3f7b5b42	0.98186123
107	0x3f7ed067	0.99536747
108	0x3f8119b6	1.0085971
109	0x3f7ed87c	0.9954908
110	0x3f80ba99	1.0056945
111	0x3f828e2b	1.0199636
112	0x3f7dc1e8	0.99124
113	0x3f7ff94c	0.9998977
114	0x3f7ff667	0.99985355
115	0x3f824b57	1.0179242
116	0x3f815bfa	1.0106194
117	0x3f7eef6c	0.9958408
118	0x3f7e442e	0.99322784
119	0x3f7ace96	0.97971475
120	0x3f7964f8	0.9741969
121	0x3f80e99f	1.0071295
122	0x3f7f8aa0	0.998209
123	0x3f80d9c3	1.0066456
124	0x3f81e935	1.0149294
125	0x3f8318f0	1.0241985
126	0x3f8209c9	1.0159236
127	0x3f7dc953	0.9913532

layers.2.norm1.bias f4 [128]
0	0x3cac1978	0.021008238
1	0xbcab0628	-0.020876959
2	0x3c07483d	0.008256969
3	0xbca86a41	-0.020558478
4	0xbceb5f49	-0.028731959
5	0xbb125860	-0.0022330508
6	0x3bb9d44e	0.0056710606
7	0xbc8df13b	-0.017326942
8	0x3b1b7f16	0.0023726872
9	0x3c47f7de	0.012205092
10	0xbc2921d5	-0.010323008
11	0xbc1ece13	-0.009692687
12	0x3c5c571e	0.013448505
13	0x3c688550	0.01419194
14	0x3c9c8ad8	0.019109175
15	0x3c0e5fdb	0.008689846
16	0xbcd654e1	-0.02616352
17	0x3c8bd9af	0.017071573
18	0x3bb5eb9c	0.0055517685
19	0x3c4b2de4	0.012401078
20	0x3aca5e10	0.001543941
21	0x3c2e000c	0.010620128
22	0x3c8060d3	0.01567117
23	0xbcd6c6a5	-0.026217768
24	0x3c1b31b5	0.0094723
25	0x3ccbd6c3	0.02488268
26	0xbc256db9	-0.010096961
27	0xbc87511d	-0.01651817
28	0xbb6ec8bb	-0.0036435563
29	0x3b2dba96	0.002650892
30	0xbc17eaf3	-0.009272325
31	0x3b4c2436	0.0031149513
32	0x3b5f8457	0.003410598
33	0xbcb87987	-0.022518886
34	0xbbf1cc44	-0.0073790867
35	0xbbd80ce6	-0.0065933345
36	0x3ac4e06e	0.0015020499
37	0x3c39fe08	0.01135207
38	0xbc598335	-0.013275911
39	0x3cb939f7	0.022610648
40	0xbc160cf9	-0.009158366
41	0xbc8ad3fc	-0.016946785
42	0x3ba25dec	0.004955044
43	0x3c4f8325	0.012665545
44	0x3c63fd86	0.013915425
45	0x3c0feb8e	0.008784188
46	0xbbf9d32e	-0.0076240515
47	0x3cf20957	0.02954547
48	0xbcba68c8	-0.022755042
49	0xbb938d14	-0.004502902
50	0x3b458ab6	0.0030142493
51	0x3c3cada8	0.011516012
52	0x3c9bf868	0.019039348
53	0xbc711140	-0.014713585
54	0xbafa2eea	-0.0019087468
55	0x3c042c6b	0.008067231
56	0x3c576c96	0.0131484475
57	0xbc56dc75	-0.0131140845
58	0xbcb0f757	-0.021602316
59	0x3c8eb05a	0.017418075
60	0xbb30b3c3	-0.0026962615
61	0xbc72e5a6	-0.01482526
62	0x3b32b16f	0.0027266403
63	0x39338399	0.00017119794
64	0x3c589fd6	0.013221702
65	0xbca800ff	-0.020508287
66	0xbc1073a5	-0.008816634
67	0xbc967b4a	-0.018369336
68	0x3c9897bd	0.018627042
69	0x3b96d217	0.0046026814
70	0x3cffc2f5	0.031220892
71	0x3b18e377	0.002332894
72	0x3c4f3622	0.012647184
73	0x3c90556d	0.01761886
74	0xbc5db6ad	-0.013532323
75	0x3c874a35	0.016514877
76	0xbce5c732	-0.028049085
77	0x3b84efa3	0.0040568872
78	0xba8795fb	-0.001034438
79	0x3b991b25	0.0046724253
80	0xbc8d702c	-0.017265402
81	0x3c99b47e	0.018762823
82	0x3a509c34	0.00079578464
83	0xbc6347f8	-0.013872139
84	0xbbfb7c83	-0.007674755
85	0x3c533961	0.012892098
86	0xbca63df7	-0.020293219
87	0xbc7efcde	-0.015563218
88	0xbc2bf86f	-0.010496243
89	0x3c782d8e	0.01514758
90	0x3c4a8804	0.01236153
91	0x3c401844	0.011724535
92	0x3c87ca9e	0.016576108
93	0xbb8bb745	-0.004263791
94	0xbbd11d83	-0.006381692
95	0xbcca18cd	-0.024670029
96	0xbbfd168a	-0.007723634
97	0xbc8a5d78	-0.016890272
98	0x3c701797	0.014654062
99	0x3c4f7ae8	0.0126635805
100	0x3af308a7	0.0018542007
101	0xbbe1d8f6	-0.006892319
102	0xbb2312c3	-0.002488301
103	0xbc44ed93	-0.012019533
104	0x3c703b95	0.014662643
105	0x3c3f01e0	0.011658162
106	0xbc976400	-0.0184803
107	0x3b9e8fca	0.0048389183
108	0xbc0c05c6	-0.008546298
109	0x3b958b91	0.0045637568
110	0x3bb9928a	0.005663221
111	0xbca216c4	-0.019786246
112	0xbc10fa5a	-0.008848751
113	0xb955fe86	-0.0002040808
114	0xb8fefedd	-0.00012159136
115	0x3c9039f0	0.017605752
116	0xbc2cc1b7	-0.010544232
117	0xbb7db509	-0.0038712642
118	0xbbe59773	-0.0070065795
119	0x3ca877da	0.020564962
120	0xbcd56aa7	-0.026051832
121	0xbbe8f991	-0.0071098288
122	0xbaec8192	-0.0018043986
123	0xbbd96608	-0.0066344775
124	0x3c72515e	0.014789907
125	0x3cc56558	0.024096176
126	0xbc80acad	-0.015707338
127	0xbc0de3f6	-0.008660307

layers.2.norm2.weight f4 [128]
0	0x3f82347d	1.0172268
1	0x3f810754	1.0080361
2	0x3f7e989a	0.994516
3	0x3f8178b5	1.0114962
4	0x3f8002c0	1.0000839
5	0x3f811c9d	1.0086857
6	0x3f801242	1.0005572
7	0x3f80f682	1.0075228
8	0x3f81c716	1.0138881
9	0x3f7e3a97	0.9930815
10	0x3f815f65	1.0107237
11	0x3f80550c	1.0025954
12	0x3f7e4826	0.9932884
13	0x3f803593	1.001635
14	0x3f81d3ef	1.0142802
15	0x3f803db2	1.0018828
16	0x3f818d2f	1.0121211
17	0x3f807327	1.0035142
18	0x3f819d1f	1.0126075
19	0x3f81293d	1.009071
20	0x3f7ecfd4	0.9953587
21	0x3f80e2e6	1.0069244
22	0x3f80d57c	1.006515
23	0x3f80586f	1.0026988
24	0x3f7fc2fb	0.9990689
25	0x3f7eebd0	0.9957857
26	0x3f80b009	1.0053722
27	0x3f7d4e04	0.9894717
28	0x3f7e0511	0.9922648
29	0x3f809ccb	1.004785
30	0x3f7ec426	0.9951805
31	0x3f7e9b03	0.9945528
32	0x3f802bf8	1.0013418
33	0x3f8020e7	1.0010041
34	0x3f80160d	1.0006729
35	0x3f80923b	1.0044626
36	0x3f805227	1.0025071
37	0x3f80eeaa	1.0072834
38	0x3f80c44f	1.0059909
39	0x3f7e31b6	0.992946
40	0x3f7fb747	0.99889034
41	0x3f7faeb6	0.9987596
42	0x3f805464	1.0025754
43	0x3f813d2c	1.0096793
44	0x3f81bddc	1.0136065
45	0x3f80867d	1.0041043
46	0x3f80c70c	1.0060744
47	0x3f824c2e	1.0179498
48	0x3f812033	1.0087951
49	0x3f81296b	1.0090765
50	0x3f7f3164	0.9968474
51	0x3f803507	1.0016183
52	0x3f80ed29	1.0072376
53	0x3f818dc6	1.0121391
54	0x3f7f5e29	0.9975305
55	0x3f7eae01	0.9948426
56	0x3f7fde95	0.9994901
57	0x3f8165db	1.0109209
58	0x3f8072d1	1.0035039
59	0x3f8122b3	1.0088714
60	0x3f80756f	1.0035838
61	0x3f810ef5	1.008269
62	0x3f7f72b1	0.9978438
63	0x3f7e74ee	0.9939717
64	0x3f7f3cda	0.9970223
65	0x3f80acf9	1.0052787
66	0x3f80bee2	1.0058253
67	0x3f7cf1e5	0.988066
68	0x3f7c4c7c	0.98554206
69	0x3f7e8d20	0.9943409
70	0x3f80776d	1.0036446
71	0x3f7fe5d2	0.9996005
72	0x3f80252d	1.0011345
73	0x3f81b008	1.0131845
74	0x3f7ff672	0.9998542
75	0x3f809d8e	1.0048082
76	0x3f81e443	1.0147785
77	0x3f81ea69	1.0149661
78	0x3f8164f9	1.010894
79	0x3f800492	1.0001395
80	0x3f7fc81e	0.9991473
81	0x3f7d3fb7	0.98925346
82	0x3f7fdf0b	0.9994971
83	0x3f807469	1.0035526
84	0x3f81912a	1.0122426
85	0x3f814e02	1.0101931
86	0x3f805ad0	1.0027714
87	0x3f8156b9	1.0104591
88	0x3f813611	1.0094625
89	0x3f80bb90	1.005724
90	0x3f809f67	1.0048646
91	0x3f7fe9f6	0.9996637
92	0x3f7e3201	0.9929505
93	0x3f7f0937	0.99623436
94	0x3f7e79e0	0.99404716
95	0x3f8065f8	1.0031118
96	0x3f81d76f	1.014387
97	0x3f81a4e0	1.0128441
98	0x3f816c21	1.0111123
99	0x3f7d9315	0.99052554
100	0x3f7eb192	0.994897
101	0x3f8065f0	1.0031109
102	0x3f7f4603	0.99716204
103	0x3f80604d	1.0029389
104	0x3f801f1d	1.0009495
105	0x3f81953a	1.0123665
106	0x3f8097ff	1.0046386
107	0x3f8113c2	1.0084155
108	0x3f80c4d7	1.0060071
109	0x3f7fc3e8	0.99908304
110	0x3f7f9bde	0.9984721
111	0x3f8163a6	1.0108535
112	0x3f80fcd1	1.0077153
113	0x3f820421	1.015751
114	0x3f818672	1.0119154
115	0x3f80460c	1.0021377
116	0x3f80f700	1.0075378
117	0x3f81d840	1.0144119
118	0x3f820ecb	1.0160764
119	0x3f7f85c6	0.998135
120	0x3f7e97b8	0.99450254
121	0x3f80e504	1.006989
122	0x3f81c548	1.013833
123	0x3f7f9bed	0.998473
124	0x3f81b20e	1.0132463
125	0x3f7e9ec6	0.9946102
126	0x3f821c1b	1.0164827
127	0x3f7e693f	0.9937934

layers.2.norm2.bias f4 [128]
0	0x3c7484bd	0.014924225
1	0xbc09165b	-0.008367146
2	0xbbe27120	-0.006910458
3	0x3c277d56	0.0102227535
4	0xb9735ce9	-0.00023208898
5	0x3c6bf5fd	0.01440191
6	0x3a11f3e0	0.0005567651
7	0xbc7cffaa	-0.015441814
8	0x3c69e8cd	0.014276695
9	0xbc0f6951	-0.008753137
10	0xbc1b840c	-0.009491932
11	0xbc675460	-0.014119238
12	0x3bef524c	0.0073035117
13	0x3b0251ab	0.0019885104
14	0x3c668e47	0.0140720075
15	0x3b0da811	0.0021615068
16	0xbc244b97	-0.010027788
17	0x3b661290	0.003510628
18	0xbc353995	-0.011061092
19	0x3c133eaf	0.008987113
20	0xbcba7c5c	-0.022764377
21	0x3bd024cd	0.0063520432
22	0x3be1020c	0.006866699
23	0xbb767b74	-0.0037610205
24	0x3ca0b6f0	0.019618481
25	0xbbb78b00	-0.005601287
26	0xbbbb8445	-0.005722555
27	0xbcd98b2c	-0.02655562
28	0x3c855e68	0.016280368
29	0x3c763753	0.015027839
30	0xbccad6ab	-0.024760565
31	0xbbac626d	-0.0052607567
32	0x3adeddac	0.0017003319
33	0xba99b7ad	-0.0011727713
34	0xba8f2c35	-0.0010923209
35	0xbc543970	-0.012953147
36	0xbb3eedb2	-0.0029133377
37	0x3bdf6ca3	0.0068183704
38	0xbbda7bdf	-0.0066675986
39	0xbbfc7b06	-0.007705095
40	0xbc91c72b	-0.017795166
41	0xbc8e4938	-0.017368898
42	0x3b3ad8c5	0.0028510552
43	0x3c009102	0.007847073
44	0x3c89611b	0.016769936
45	0x3b9a863b	0.0047157086
46	0xbc7c8e21	-0.015414746
47	0x3c810abe	0.015752193
48	0xbc11909b	-0.008884574
49	0xbbcc2029	-0.0062294197
50	0x3ac88c39	0.0015300579
51	0x3c9edf0b	0.019393465
52	0x3c9ddf81	0.019271614
53	0xbc173c7d	-0.00923073
54	0xbcbc7a9d	-0.023007685
55	0x3cb9fe7c	0.022704355
56	0x3ca7d2e2	0.020486299
57	0x3c30ba8a	0.010786662
58	0xbb71531b	-0.0036823216
59	0x3bfa09b2	0.0076305503
60	0xbb50ebfa	-0.0031878934
61	0xbc03e712	-0.008050697
62	0x3ad709d6	0.001640613
63	0x3bd6ab97	0.006551217
64	0x3c97dc89	0.018537777
65	0xbc8700a4	-0.016479798
66	0xbbb54901	-0.0055323844
67	0xbcb9284b	-0.022602221
68	0x3cde6184	0.027146108
69	0x3bb9c29b	0.0056689507
70	0x3c9e52e3	0.019326633
71	0xb8846ad6	-6.31415e-05
72	0x3b0c3807	0.00213957
73	0x3c232a7b	0.009958859
74	0xba32733c	-0.00068073324
75	0x3c90a8a1	0.017658534
76	0xbbd17672	-0.0063922936
77	0xbc5265bc	-0.012841638
78	0xbc3938f7	-0.011305085
79	0x3a0dc182	0.0005407558
80	0xbc98d5ff	-0.018656729
81	0x3cbd7225	0.023125717
82	0xbcc69cb8	-0.024244651
83	0xbba01f56	-0.004886548
84	0xbc1cba65	-0.009565924
85	0x3c92da6b	0.017926415
86	0xbb260911	-0.0025334994
87	0xbc0f4fb5	-0.008747031
88	0xbc65adc7	-0.0140184825
89	0x3c9ab427	0.018884731
90	0x3c9d5580	0.019205809
91	0xb943d1a1	-0.00018674742
92	0x3cb83397	0.022485537
93	0xbb6bd819	-0.0035986959
94	0x3c01c7cf	0.007921173
95	0x3b39d9c8	0.0028358568
96	0xbc4841d0	-0.012222722
97	0x3c6876d8	0.014188491
98	0x3c1559c9	0.009115645
99	0x3c38de43	0.01128346
100	0x3bbe20f5	0.0058022686
101	0xbb48e620	-0.0030654743
102	0xbca16576	-0.0197017
103	0xbb1e646d	-0.0024168745
104	0x3c966161	0.01835698
105	0x3c2581d7	0.010101757
106	0xbc8d94b1	-0.017282816
107	0x3c250e62	0.01007423
108	0xbbc2d675	-0.0059459754
109	0x3ca5b6eb	0.020228824
110	0xba92d47b	-0.001120224
111	0xbc06c1f4	-0.008224953
112	0xbc8496e7	-0.016185237
113	0xbc4e42dc	-0.012589183
114	0xbc976b29	-0.018483715
115	0x3b275e9c	0.002553857
116	0xbbe7657c	-0.0070616584
117	0xbc456d86	-0.012050038
118	0xbc8740a4	-0.016510315
119	0x3ad2757b	0.001605674
120	0xbcbc93f8	-0.023019776
121	0x3bf82e8a	0.0075739073
122	0xbc4d386e	-0.012525661
123	0x3a921390	0.0011144746
124	0x3c3891a3	0.011265191
125	0xbb9721ff	-0.004612207
126	0xbc372bee	-0.011179907
127	0xbbcb2148	-0.006199036
